Tic-Tac-Toe-RL/tic_tac_toe_rl_model.pth (torch, 188334 bytes, 10 tensors)

input.weight f4 [256, 9]
00000000: 021b 6fbb 79dd a33e 8284 8dbe 8a29 e8ba
00000010: c3ea a53e ac88 3ebe 6a68 9c3e 7391 e6bd
00000020: 80ba 993c 38b7 7a3e 9ab2 5c3e 31ea 5dbe
00000030: dc0a b03e 2bd7 8fbe 4016 e0bd 3d01 303d
00000040: e049 063d 308d 84be 09dd 483e cd03 8cbe
00000050: 5b9a ffbd 6709 1cbe 6839 a33e 1ae6 3bbe
00000060: 874c 04be e489 34be e113 983e 3af3 093d
00000070: 1710 b63e a9f3 64be ab3f 8c3e 9d47 0b3e
00000080: 46c7 c03e 5f81 a63e 0683 77be dec6 a2be
00000090: f57c c33e e448 4a3e a059 913c 2d30 753e
000000a0: d958 de3d 8a70 0a3e 0050 4bbc 43f3 11be
000000b0: 182d 1d3d 409f c5be 3933 b4be 0f89 213e
000000c0: 38a4 47be c14f 5bbe b683 183e e4b2 29ba
000000d0: c0fe c13d a6a9 c0be 15e4 003e 0d69 d6bd
000000e0: fc7b 03be 38fa afbe d55f 403c fd53 853e
000000f0: 6074 bbbe 40d7 b4be cc4e 583e 09d2 e93d
00000100: 7c36 cd3c ed6d 3c3e faf4 203e 657a 9b3d
00000110: ae08 6b3e 1213 26be 602e 723e 664a e83d
00000120: 91f6 c13e b337 a03e 4436 99be 00de 86be
00000130: 3df6 80bd 2e12 e3bd cf72 f73d 2736 003b
00000140: e772 1d3e c7e5 423e f749 c33d 84b1 b53e
00000150: 2e34 f4bd 60c8 583e 63fa 483e 257a 16bd
00000160: 37c4 34be eeac 503e 32cf 7ebe a533 64be
00000170: 2c68 4c3e 7723 4e3c 8ac4 32be 267a fd3d
00000180: 5ddf 7b3e f982 1fbe 2cb2 5ebe 01a6 9a3d
00000190: f88c 963e 8ff6 783e 5400 c63d e747 c4be
000001a0: fddf 07be c545 b0bd 38f4 e03d bdc5 963c
000001b0: 2895 58be 2232 15be c408 9b3d 755f babd
000001c0: a8a1 4abe 14a9 9a3e 4ada 78be 7afd 15bd
000001d0: 0597 afbe b0b1 56be f1e4 5c3e 36be 5cbc
000001e0: d69d 6ebe 646f ad3d e935 c8be 6a46 fa3d
000001f0: 0b5e 51be 8c45 273e 20d8 963e 0d03 a23e
00000200: af25 7abc 6303 89be a3e0 c1be 1266 833e
00000210: 0036 7fbd 05a2 35be 6b3e 2d3e 1a08 7d3d
00000220: 766b 5e3e de7e dbbc ada6 c83d 6244 5b3e
00000230: eb31 fd3d d84a 723e 6fa0 1bbe 7c89 0dbd
00000240: fc50 5b3e e665 7cbe 0067 03be f4a2 b1bd
00000250: 19e6 d83e f643 1c3e af4f 863c a56a 893d
00000260: acf6 873e 809f 43be 9a42 11be 0382 253e
00000270: 2058 88be 9d19 90bd abc7 063e cb7c 74be
00000280: 4738 4abd 212f 14be 6d9c 7abe ed96 66be
00000290: ac97 9ebe 58ea 69be a0c4 13be 65ea dabe
000002a0: aa92 4c3e 991b bb3d e0ed 4dbb 6b91 7cbe
000002b0: 9678 8cbe 103e 92bc b422 11bd 06fc 89be
000002c0: 8414 b53e d217 2cbe 42c3 9cbe dfdd 313d
000002d0: 9431 973d 9db9 dbbd 34f0 2b3e 4c70 2f3e
000002e0: fc55 31be 7a4c 9cbe 2f03 9fbd b1c4 a33d
000002f0: c693 19bd 3f09 213e 45dc aa3a 4934 3e3e
00000300: 2b93 81be 50d8 8fbd 3d99 603e 6df3 d0be
00000310: f45d 9ebe 0cbe a43e de9d a6bd d3af c9bc
00000320: 6fb6 4abe 71bd 973e e62e 97bd c115 85be
00000330: 87e4 6abd 3cb5 76be 8ec8 473e 49db dcbd
00000340: b46e 64bd 39f3 483e 33c7 813d d46f 823e
00000350: 9e3a 5fbd 5371 6c3e db86 cabd e2e8 92bd
00000360: b0a4 0b3e 049a 21be efe6 3f3e 863f 95be
00000370: 6def 833e aa68 99bc 4105 bfbd 59a5 58be
00000380: 93e0 f13d c931 e83d d160 9cbe aaa0 e0bd
00000390: 07c4 203e 2202 edbb 2c90 e7bd 3ba5 4d3e
000003a0: bfa7 04be b57a 51be 18d4 3abc 685c 933c
000003b0: 4ede 51be c110 573e 94a9 ae3e 89b1 1e3e
000003c0: e474 c03d b9b6 67bc f6dc c43c bdff 3a3e
000003d0: 96d4 64be 51c7 a53e 5583 2dbe 9b04 0a3e
000003e0: 436e 0b3e cf88 993e f832 14bd 84e6 3d3e
000003f0: 7505 03bd c74d 25be 2782 57be e9b2 24be
-0.0036484604 0.32004908 -0.27640158 -0.0017712575 0.3240567 -0.18606824 0.30548412 -0.11258211
0.018765688 0.24483955 0.21552506 -0.21671368 0.34383285 -0.28093848 -0.10941744 0.04296993
0.032785296 -0.25888968 0.19615568 -0.2734665 -0.12480613 -0.15237962 0.31879735 -0.18349496
-0.12919818 -0.17630726 0.29702666 0.033679225 0.3555915 -0.22358574 0.27392325 0.13601537
0.37652034 0.32520577 -0.24171075 -0.3179235 0.38181272 0.19754368 0.017742932 0.23944159
0.1085679 0.13519493 -0.01240921 -0.14252953 0.038373083 -0.3859806 -0.3519533 0.1577494
-0.19496238 -0.21417142 0.14893994 -0.0006473495 0.09472418 -0.3762943 0.12587006 -0.104692556
-0.12840265 -0.3437059 0.011741598 0.2604064 -0.36612225 -0.35320473 0.21123809 0.11417014
0.025050394 0.18401308 0.15718451 0.07591704 0.2295253 -0.16218212 0.23650503 0.113423154
0.37883428 0.31292495 -0.29924214 -0.26341248 -0.06296966 -0.11087452 0.12082445 0.0019563527
0.15375863 0.19032966 0.09535592 0.35486996 -0.11924015 0.21170187 0.19626765 -0.03673758
-0.17652975 0.20378467 -0.24883726 -0.22285326 0.19961613 0.012581698 -0.17457786 0.123768136
0.24596925 -0.15577306 -0.21747655 0.07551194 0.29404426 0.24312805 0.09668031 -0.38336107
-0.13269038 -0.086070575 0.10984081 0.018404836 -0.21150649 -0.14569905 0.07570031 -0.09100238
-0.1978823 0.3020712 -0.2430202 -0.036618687 -0.34294906 -0.2096622 0.21571709 -0.013473084
-0.23302397 0.08468512 -0.3910363 0.12220462 -0.20446031 0.16335124 0.29461765 0.31642953
-0.0152677735 -0.26760396 -0.37866697 0.2566381 -0.062307358 -0.17737587 0.16918342 0.061775304
0.2172068 -0.026793893 0.09797416 0.21412805 0.12363037 0.23661363 -0.1519792 -0.034554943
0.21417612 -0.24648246 -0.1283226 -0.08673659 0.4236305 0.152603 0.016395418 0.06709794
0.26555383 -0.19103813 -0.14185563 0.16162877 -0.26629734 -0.07036135 0.13162105 -0.2387573
-0.049370077 -0.14471103 -0.24473734 -0.22518511 -0.3097509 -0.22843301 -0.14430475 -0.42756954
0.19977823 0.09136123 -0.0031422302 -0.24664848 -0.2743575 -0.01785186 -0.035433486 -0.2695009
0.35367215 -0.16805962 -0.3061772 0.043424483 0.07382503 -0.10728762 0.16790849 0.17132682
-0.17317957 -0.30527097 -0.07764279 0.079965 -0.037494443 0.15726183 0.0013035616 0.18574633
-0.25307593 -0.0702368 0.21933456 -0.4081072 -0.30931056 0.32176244 -0.081355795 -0.024619972
-0.19796155 0.2963672 -0.07381992 -0.2599316 -0.057346847 -0.24092573 0.195101 -0.10784013
-0.055769637 0.19624032 0.06336822 0.25475943 -0.05449926 0.23090105 -0.09889003 -0.07173325
0.13637042 -0.15781409 0.18740438 -0.29150027 0.25768605 -0.018726666 -0.09327174 -0.21156825
0.11810412 0.11337621 -0.30542615 -0.10968144 0.15699778 -0.0072329203 -0.113067955 0.20082562
-0.12954615 -0.20456965 -0.011403106 0.017988399 -0.20494959 0.21002485 0.34113753 0.15497412
0.09397295 -0.014142686 0.024031144 0.18261619 -0.2234672 0.3237863 -0.1694463 0.1347832
0.1361628 0.2998719 -0.03618142 0.18544966 -0.031987626 -0.16142951 -0.21045743 -0.16083874

input.bias f4 [256]
00000000: cace bc3d 1ddc 86be ddee f4bd 832f 95be
00000010: 0dce 1bbe ec24 aabe 73d6 4ebe 7eeb b83e
00000020: af45 393e 3d1f 89bd 5341 893e 4449 8cbd
00000030: 5144 293e 0197 7abd 6268 06be 8ac6 803e
00000040: 574d 7a3e 3f2d 2e3e 6f3b d5bd 7227 413d
00000050: 2ad5 213d c0f2 2f3d 3fe9 cf3d d6f5 3e3d
00000060: 630d 49be 2009 623d 870b 293e c110 16be
00000070: 4100 163e ecf5 90bd fcd1 a73b 32f7 95bd
00000080: 8b09 7abd ffe4 883e 2bfa 76be 333d 2fbe
00000090: d33c 75be d977 eebd 4869 2c3e 2dcb 52bd
000000a0: 04a0 2dbe e1c7 753e 15f1 5c3e 369c 83be
000000b0: 5141 a93d 8053 c3bd 2422 4e3e 400c 5abe
000000c0: 84f7 0d3e 3554 50be 92b4 a43d 6669 4ebd
000000d0: e092 9abd 4e44 553e de1a 87bc f3f5 4f3e
000000e0: ab06 86bd 73c2 bdbd 2110 723e 161e 40be
000000f0: 9a6f 01be 2ff4 22be 37d0 8ebe 3151 f3bb
00000100: cfe8 4d3e 4327 503d ab67 873e 7597 863d
00000110: 5745 a83d cfb2 3e3e 82f8 693e da2a 773d
00000120: 5bd1 3ebd 037f 553e 0b70 b33e abc3 563d
00000130: 95ce 5b3e e171 4bbd 2b30 053e 02f8 523e
00000140: 74d7 b1bd f2c2 1fbe 9051 78be 9ec2 e1bc
00000150: 3de7 a23d b88a f5bb 0710 a03d 0e34 f3bd
00000160: 437e a0be ac3f 2cbe 1798 8fbd 1be9 4abd
00000170: 52f8 4cbe c44e ff3d 8cbc 9b3e ca2b 873e
00000180: 4826 84be 2a09 16be 3b2e 503e 3070 d3bd
00000190: 93e7 083d b099 883e 06c1 35be 45bc 943e
000001a0: 0557 973e 36ca 68be a5d7 833e a6bb 903e
000001b0: 3342 10be 80b8 63be 5f27 bebd a122 d7be
000001c0: 22ca a93e 9f8d 573d b9b1 f93d 3952 05be
000001d0: 8368 38be 8f00 a9bd 7095 99bd 05e7 103c
000001e0: 5d31 b53d f1c2 873e 627b 263b 835f dbbd
000001f0: 2775 c6be d6ac 83be fe7b 01be c9a7 d33c
00000200: a41f 593e b462 8d3e 28f9 0c3d f39f 5dbe
00000210: 6e3e 75be efb0 f13c 4624 0b3e 8576 5d3d
00000220: 3247 4abd 2b28 a03b 2a8e 81bd 0e0f 91be
00000230: 30e1 9ebd 6059 fa3b 22fb 78be 9a04 05be
00000240: 011a 833e 422c 9a3d 4f1a 0dbe 0047 8c3e
00000250: baff 5c3e c641 3ebe db26 cf3d e2d6 443e
00000260: 9a50 1b3c 7609 533d 0b70 883d dd51 5bbe
00000270: 3d13 3fbe 09ab 77bc d565 7f3e 789e 473e
00000280: 5b3d 7fbd 83b3 13be 9f45 fabc c0a8 013d
00000290: 4520 a53d 1a43 80bc 31f3 103e 91d0 473e
000002a0: f9ea 6c3d fde5 833e 5b6a 2dbc 4595 993e
000002b0: b656 6d3d b082 2fbe 590b a73e af70 2abe
000002c0: e191 babe 2b2f bebe 0c5f 803e f24e ce3c
000002d0: 6529 5f3e e0b6 fc3d c79f 24be 1eb0 493e
000002e0: 5256 803e 884a dfbd 3449 9c3e c1c8 a43e
000002f0: eb51 26be ef9a 8b3e 68ea 26bd e835 953e
00000300: 104a e23b 7750 aa3c d07f 7e3e 3bec 823e
00000310: 5d90 9c3d 8d85 3d3e b927 3b3e 7889 863d
00000320: 1a8a 1bbe c1ea 6dbe 5150 6fbe 1617 ab3e
00000330: ef20 593e 3a9a 1dbe d198 83be fdf4 80be
00000340: 5637 f7bd 8de5 a1bd 0a1e 443e f8b6 383d
00000350: 8e3a 5bbe 0a96 863e cb70 7abd 32aa dcbd
00000360: 5252 45be 0665 053e 50ca f8bd f51e 34be
00000370: c361 c5bd 9c41 803e 9997 29bd a8af 673d
00000380: 9d4e 6a3d e16a c43d 14dc 9fbe ca9b 653e
00000390: 87bb 45bd ca29 21be bfad 5cbe acb6 8a3d
000003a0: 4d4d c43d 6596 22be 915d b3bd 9d31 5c3d
000003b0: f30f d23d 263e b13d 9260 fdbd 38b8 823d
000003c0: 1c8c 2ebc 1480 dfbd 3b28 e33d f428 a4bc
000003d0: 939c 71be 07f8 a73e c403 d63d a9e4 87be
000003e0: 9954 7dbe 2ea3 9e3e 1bc7 933e 270e a93e
000003f0: f104 a03d ecf0 453e 666c be3d 7008 d03d
0.092191294 -0.26339808 -0.11959622 -0.2913781 -0.15215321 -0.33231294 -0.20198993 0.36117166
0.18092988 -0.06695411 0.2680765 -0.06849912 0.16529967 -0.061179165 -0.13125756 0.25151473
0.24443565 0.17009448 -0.10411727 0.04715676 0.03950993 0.042956114 0.1015191 0.046621166
-0.19634013 0.055184484 0.16508304 -0.14654829 0.14648534 -0.07078156 0.0051214676 -0.073225394
-0.061044257 0.2673721 -0.24118869 -0.1711319 -0.23948984 -0.11643953 0.16837037 -0.051463295
-0.16955572 0.24002029 0.2157634 -0.25705117 0.08264411 -0.09537411 0.20130211 -0.21293736
0.13863951 -0.20344622 0.080422536 -0.050393485 -0.075475454 0.20826837 -0.016492303 0.20308666
-0.065442406 -0.09265604 0.23638965 -0.18761477 -0.12640229 -0.15913461 -0.2789323 -0.0074254503
0.2010834 0.050818693 0.2644628 0.06571857 0.082163505 0.18622898 0.22848704 0.0603436
-0.046586376 0.20849232 0.3504642 0.052432697 0.21465524 -0.04966915 0.13006656 0.2060242
-0.086836725 -0.1560171 -0.24249864 -0.027558621 0.079542615 -0.007493343 0.07815557 -0.11875163
-0.3134633 -0.16821164 -0.07011431 -0.049538713 -0.20016602 0.12466195 0.30417287 0.26400596
-0.25810456 -0.14651933 0.20330136 -0.103241324 0.03342397 0.26679754 -0.17749414 0.29049888
0.29558578 -0.22733387 0.2575046 0.28268164 -0.14087753 -0.2223835 -0.09284853 -0.42018607
0.33162028 0.052625295 0.12192101 -0.13019647 -0.18008618 -0.0825206 -0.07499206 0.008844142
0.08847306 0.26515916 0.0025403132 -0.10711577 -0.38761255 -0.257178 -0.12644956 0.025836842
0.21203476 0.27614367 0.0344173 -0.21643047 -0.23949596 0.029503314 0.13588056 0.054068107
-0.049384303 0.004887601 -0.06325944 -0.28331798 -0.07757795 0.007640049 -0.2431455 -0.12990037
0.25605777 0.07527973 -0.13779567 0.2739792 0.21581927 -0.18579778 0.10114833 0.19222596
0.009479666 0.051522695 0.066619955 -0.21417947 -0.18659683 -0.015116462 0.2494119 0.19494045
-0.062314373 -0.14423947 -0.030550776 0.031655073 0.080627955 -0.015656997 0.1415527 0.19513156
0.057841275 0.25761405 -0.010584439 0.29996696 0.057944022 -0.17139697 0.32625845 -0.16644548
-0.36439422 -0.3714536 0.25072515 0.025184128 0.21793135 0.12339568 -0.16076575 0.1969609
0.25065857 -0.109028876 0.305246 0.32184413 -0.16242187 0.27266642 -0.04075089 0.2914269
0.0069058016 0.020790322 0.24853444 0.25570855 0.076447226 0.18507977 0.18276872 0.06569189
-0.151894 -0.23234083 -0.23370482 0.3341605 0.2120397 -0.15390864 -0.25702527 -0.2518691
-0.12071101 -0.079051115 0.19152084 0.045096368 -0.21409056 0.26286346 -0.061142724 -0.1077465
-0.19269684 0.13026819 -0.12147963 -0.17589934 -0.09637787 0.25050056 -0.04140434 0.056564003
0.057203878 0.09590698 -0.31222594 0.2242271 -0.048274543 -0.15738598 -0.21550654 0.06773123
0.095850565 -0.15877683 -0.08758081 0.053758252 0.10256948 0.08654432 -0.12371935 0.06382793
-0.010653522 -0.10913101 0.11091658 -0.02003906 -0.23594885 0.32806417 0.10449937 -0.2654164
-0.24739303 0.3098387 0.28862843 0.3301861 0.078134425 0.19330186 0.09298019 0.10157859

hidden1.weight f4 [128, 256]
00000000: 5126 90bc 9c2c f73c 856b 9ebd 8829 883c
00000010: e106 243d d404 483a 6dfc 1dbd 0b66 0cbd
00000020: 79b5 67bd d4fa 45bc 4b00 8b3d 8e9c 0abc
00000030: 0151 033b 54b8 96bc b4dd 66bc e374 213d
00000040: dbbd 293c 50fe 223d c284 953c e7a8 703d
00000050: bb2d 593d dd06 23bd 5132 e0bb bee2 6c3d
00000060: 3dac d23c d561 963d be63 a0bc 0788 27bd
00000070: fc4d 5dbc 9da4 203d d492 96bc 705d a43d
00000080: 5051 623c 4437 7539 e91a bc3b 8a5e 0bbd
00000090: a2e6 8f3b 96ae e5bb fa51 62bb bce5 893d
000000a0: 309d 59bb 6ad0 afbc 78f7 563d 348f c03c
000000b0: 8761 2ebd f6bf d43d 8cdd 583d 3aa3 04be
000000c0: c570 7a3d f0ff 453d 5ef3 8fbd cd6a de3c
000000d0: c6fc 0a3c 10a5 05bc 11c2 2a3c ffa8 60bd
000000e0: bc2d 313c afd0 b4bd 375d 0ebd 7d31 183d
000000f0: 4a69 9cbd 3548 bebd 3100 373e 368f 8c3d
00000100: bb2f 66bc 15d7 63bd 4fba 7c3d 33c9 a1bd
00000110: 04ea e33c 9827 e7bc d3fa 4e3b 9c06 32bc
00000120: 3c4e e3bd bdef 8cbd 1a94 0b3d 300d cfbc
00000130: f899 5cbc a046 e3bb bf11 04bd 02f2 80bc
00000140: be1c 5ebb d16c 9abd 7c83 a6bd bfbf 3e3d
00000150: a60a 90bd d9d8 8bbc 11fe 65bc 5b9a 6abd
00000160: b3ad 3e3d 56da 303d 9d74 f0bc 9571 8e3d
00000170: 15bb 903b 0885 a2bc aeb1 843d f693 e2bc
00000180: 492f d0bd df0c debc c756 bcbc 03e5 b7bd
00000190: 655a b8bc a356 6a3d 852f d2bc 3dbf 663d
000001a0: 1ec0 67bd ab05 86bd 1532 c33c 06e2 713d
000001b0: c347 6a3d a3ae c7bc d2df f43d b0bc 0d3d
000001c0: 2eb3 38bc f18f 05bc 5e67 a73d 8ce9 83bd
000001d0: 0023 003d 2e89 883c bb2f 15bd 63fe a23c
000001e0: a64d 5b3d 2669 983d eff6 23bd 97c7 08bd
000001f0: 424c 00bd 7932 3abd 35cf 99bc 643a 773b
00000200: dcad 293d 4fb3 53bb 6f8b 053d 727a b6bc
00000210: b396 a63b 8f9f 9c3d e763 893c 4a11 8a3d
00000220: 2ed3 18bd 11b0 7fbd deb1 543c 2553 283d
00000230: 3e36 c23d 1c7a 5c3c b8d7 cebd 530c d63c
00000240: 83ca a5bc ca92 01bd 6256 a43c b24a 393d
00000250: a199 453d 69de 8b3d 229b 943d df7a cfbc
00000260: 9f8f 69bd e473 4e3d bc90 22bd b56f 993d
00000270: 63cf 05bd 5b71 2f3c c7e6 efbc 6a22 8abc
00000280: a684 c3bd 9eca d2bd 6b2a e83c 7498 eabb
00000290: b571 f2bb 7d1c 0a3c d40d 54bc 2e50 033d
000002a0: 2e00 9fbb 0b2f 233d 5422 95bb bce4 3f3d
000002b0: a856 843d e7be 37bc f91d cf3b c41e 383d
000002c0: 4fbd 88bd 57e6 2abc df67 8d3d 0918 3a3c
000002d0: 94b4 17bc 7668 72bd bf05 d0bd 8ed2 0dbd
000002e0: 2b7e 67bc 5c45 27bd 8694 f63c 1730 6abd
000002f0: 241b 8bbd 4124 78bd a973 80bd 97cb aebc
00000300: 631e 663b d505 77bd 7251 d13c cfe9 04ba
00000310: fa81 debc abeb 853c f0e4 7b3d 2428 e03c
00000320: 9d02 f53c fb4f 32bd 53f8 ff3d 955f 393d
00000330: 1ad2 103d d077 a1bd 7f90 1bbd a0ee 8dbd
00000340: bb55 28bd f09b ee3c 6568 843c 5c7a d63c
00000350: 3ad1 a23c c209 bfbb ea8d f5bc f8b2 3dbd
00000360: 2fa9 a8bc 9ed4 39bc 426b 76bd 27a9 8cbd
00000370: ebef 073d b1c8 41bd 4f12 efbc a8a1 983d
00000380: 2ece 243d 9b46 78bd 7f0a 82bd bfd3 ab3c
00000390: ac0e a43c 52b3 47bb ef87 cdbc 9763 a5bb
000003a0: 90a2 67bc 47b4 51bc 0b63 d03c 5735 08bd
000003b0: d940 05bd 44d5 5ebd baad c43c 044a 203c
000003c0: 769f 7abd d81d fe3c aa95 8dbd b198 693d
000003d0: 42ec dd3b 80d8 593c 08d0 b63c 64ae 913c
000003e0: ad0c 86bc 6a23 55bc d7e1 503c b446 9b3d
000003f0: a3c6 cf3a b6f5 11bd dcf1 9f3d 4058 933d
-0.017596396 0.030172639 -0.077353515 0.016621366 0.040045623 0.0007630114 -0.03857081 -0.034277003
-0.05656955 -0.012083728 0.06787165 -0.008460177 0.0020037296 -0.018398441 -0.014090944 0.039418112
0.0103602065 0.039793313 0.01825178 0.058754828 0.053022128 -0.039801467 -0.0068419357 0.057833426
0.025716895 0.07342879 -0.01957881 -0.04090121 -0.013507362 0.039219487 -0.01838056 0.08025634
0.013813332 0.00023385609 0.0057405126 -0.034025706 0.0043915072 -0.0070093377 -0.0034533725 0.067332715
-0.0033205263 -0.021461684 0.0524821 0.023505785 -0.042573478 0.10388176 0.05294566 -0.12952891
0.0611427 0.048339784 -0.070288405 0.027150536 0.008483117 -0.00815703 0.010422246 -0.054848667
0.010814127 -0.08828866 -0.034756865 0.03715657 -0.0763727 -0.09291116 0.17871167 0.06863253
-0.014049466 -0.05562504 0.061701115 -0.07899704 0.027821548 -0.028217122 0.0031582608 -0.010865834
-0.110989064 -0.06881664 0.034076788 -0.025274843 -0.013464443 -0.0069359094 -0.032243486 -0.015740398
-0.0033891643 -0.07540286 -0.081305474 0.046569582 -0.07033281 -0.017071174 -0.014037625 -0.05727611
0.04655237 0.04317697 -0.02935248 0.06955258 0.004416833 -0.019838825 0.06479202 -0.027658444
-0.10165269 -0.027105747 -0.022990597 -0.089792274 -0.022504041 0.05721153 -0.025657425 0.056334723
-0.0565797 -0.0654405 0.023827592 0.059053443 0.057197344 -0.024375265 0.11956753 0.034603775
-0.0112731885 -0.008151994 0.081740126 -0.0644103 0.03128338 0.016666975 -0.036422472 0.019896692
0.05354085 0.074419305 -0.040030416 -0.03339347 -0.031322725 -0.04545829 -0.018775562 0.0037724013
0.04142557 -0.0032302921 0.032603677 -0.022275183 0.0050838827 0.07647621 0.01677127 0.06741579
-0.03731077 -0.06242377 0.01298186 0.041094918 0.09483002 0.0134568475 -0.10099739 0.026128924
-0.020238167 -0.03163413 0.020060722 0.04523725 0.048242215 0.06829531 0.07256152 -0.025327144
-0.057021733 0.05040349 -0.03968881 0.074920096 -0.032668483 0.010708178 -0.029284848 -0.016862113
-0.09546785 -0.102925524 0.028340539 -0.007159287 -0.007398809 0.008429644 -0.01294275 0.032058887
-0.0048523163 0.039839786 -0.0045512114 0.046848997 0.06461841 -0.011214948 0.0063207117 0.044951215
-0.06676733 -0.010430894 0.069045775 0.0113582695 -0.009259362 -0.059181653 -0.10157346 -0.03462463
-0.014129202 -0.04083763 0.030100118 -0.05717477 -0.06792286 -0.06058145 -0.062720604 -0.021337314
0.0035113327 -0.060308296 0.025551531 -0.00050702406 -0.027161587 0.016347727 0.06149763 0.02736289
0.029908473 -0.043533307 0.12498536 0.04525717 0.03535662 -0.078841805 -0.0379796 -0.0693028
-0.041097384 0.029127091 0.01616306 0.026181392 0.019875158 -0.0058300206 -0.029974896 -0.046313256
-0.020588486 -0.011342196 -0.060160883 -0.06868201 0.033187788 -0.047310535 -0.029183535 0.074527085
0.04023569 -0.06061421 -0.06349658 0.020974992 0.020026527 -0.0030471873 -0.025089232 -0.0050472724
-0.014137879 -0.012799329 0.025437852 -0.033253994 -0.032532547 -0.054402605 0.02400862 0.009783272
-0.06118723 0.03102009 -0.06913312 0.057030383 0.006772549 0.0132962465 0.022315994 0.017783351
-0.016363466 -0.013008932 0.012749157 0.07581845 0.0015852045 -0.03563472 0.07809803 0.07194567

hidden1.bias f4 [128]
00000000: 438c 9d3d e459 993d 545a b63c cf49 4b3d
00000010: e7bb 6e3d 83b1 85bd 967d 88bc 4570 993d
00000020: 249e 6a3d 1ac8 153d cc04 823d c367 993d
00000030: db10 593d 2105 873b 1ed1 483d a557 073c
00000040: d67a 8e3d ae33 1e3d 8699 ab3d c2fd df3c
00000050: 53d7 043e 525a db3c 60f4 5e3c 433f 2b38
00000060: 16de 9e3b 3978 393d 9637 cc3d ae39 4f3d
00000070: 2f70 d13d cc2b 863d b7e6 90bd 95f6 ab3d
00000080: cf74 84bc 2259 9c3d 3346 c8bc f46d 1f3d
00000090: 47a6 c43d 4bb0 b33d 1401 423d 8918 ec3c
000000a0: 50ec 8fbc c683 a63d c051 84bd 54aa bc3c
000000b0: 072b 983d 2544 a43d f528 edbc d8dc 123a
000000c0: b3b9 4f3d c294 f43c cc49 d23d f98f 623d
000000d0: ade6 1d3c b530 da3d ab32 6ebd ce1a 20bd
000000e0: 0247 19bc 3e6a f73c 452e bdbb 42cc 9ebd
000000f0: 9228 bd3c 1cb6 163d 1032 273c f80b c2bc
00000100: 282b 5d3d 322f cc3c 2160 9a3d 533c d63d
00000110: 1516 62bc 1006 9a3d b69e 0abe 1fb7 c93d
00000120: e3a3 1cbd 0828 613d 0fc3 4d3d 8519 203d
00000130: 4b50 e13c 60f3 08bd 823e 42bd f793 733d
00000140: 559a 3fbd 26a5 b0bc e7ef a03c 8425 6a3d
00000150: 73f1 783d 88e3 e53b 1b81 603d 599a 363d
00000160: 14ba b5bc b10f a5ba 3ebe 3f3d a63a 5b3d
00000170: a86b 9f3a 7ca3 c73d e3f3 9f3d 7224 7fbd
00000180: f843 b1bc 001f 593d 35e6 69bc 2cd1 2c3d
00000190: ea54 95bc a7e4 873d 24d6 9cbd 0ae0 343d
000001a0: 8a14 c83d f7f7 763c b2fb 073e f9d3 e33d
000001b0: 83f0 b73c 2795 2fbc 0dd3 373d 7107 febb
000001c0: de83 15bc f89e 383b e669 623d 77cb 9c3c
000001d0: 86bb 6c3d cce2 a43d c96f ac3d dfd5 e03d
000001e0: de2f 43bd b3fd 183d 4c41 7bbc d6db 843d
000001f0: e8d1 133d 15ca 89ba 63ff 5c3d 00fc 88bc
0.076927684 0.074878484 0.022259869 0.049630936 0.058284666 -0.06527998 -0.016661447 0.07492117
0.05727972 0.036567785 0.06348571 0.07490494 0.05299459 0.0041204845 0.049027555 0.008260642
0.06957023 0.038623504 0.08378892 0.02734268 0.12972765 0.026776467 0.013608068 4.0828494e-05
0.004848252 0.04528067 0.0997154 0.050592117 0.102264754 0.06551322 -0.07075255 0.08396641
-0.01616898 0.07634188 -0.024447536 0.03892322 0.096020274 0.087738596 0.04736431 0.028820293
-0.017568737 0.081306025 -0.06460905 0.023030438 0.07430082 0.0802081 -0.028950194 0.0005602366
0.050714206 0.02985609 0.10267982 0.055313084 0.009637517 0.106538214 -0.05815379 -0.039088063
-0.0093553085 0.030202027 -0.005773338 -0.07753803 0.023090634 0.036794767 0.010204807 -0.023687348
0.053996235 0.024924848 0.075378664 0.10460725 -0.01379921 0.075206876 -0.13537106 0.09849381
-0.038242232 0.054969817 0.05023485 0.039086837 0.027504107 -0.033435225 -0.047422893 0.059467282
-0.046778042 -0.021563124 0.019645644 0.057164684 0.06077714 0.007015649 0.054810625 0.04458079
-0.022183456 -0.0012593177 0.04681229 0.05352273 0.0012162821 0.09747979 0.078101896 -0.062290616
-0.021638855 0.05300808 -0.014276077 0.04219167 -0.018228967 0.06635409 -0.076580316 0.044158973
0.097695425 0.015073768 0.13279608 0.11124415 0.022453552 -0.010716713 0.044879008 -0.007752352
-0.009125678 0.0028170925 0.055276774 0.019139988 0.057796024 0.080510706 0.08419759 0.10978293
-0.04765307 0.03735132 -0.015335392 0.06487243 0.036088854 -0.0010512496 0.053954493 -0.016721725

hidden2.weight f4 [64, 128]
00000000: 42f1 e3bc 44a9 f5bc a2eb 86b8 f8a6 1bbd
00000010: a727 82bc 263d dbbc 7069 77bd 1a6b 0ebd
00000020: ff99 303d c6d8 76bd 529b aebd c9b9 6b3d
00000030: 82bd 7ebd fa53 1bbd fde1 bfbc 84d3 65bd
00000040: c391 10bd f214 f63c 39f2 973c e99c 8a3d
00000050: 7659 cdbc 285b 94bd fd5c 2c3c 7006 aebc
00000060: 2550 623c 335d 2339 308a a6bd 6529 8abd
00000070: 901b 99bd 444e 09bd 5d40 903d 24fb a7bc
00000080: 87ff 9fbd 3920 883d 8074 a7bd 3f3c 523d
00000090: 8e99 ac3c 259d ab3c a24f b5bd cf1c 333d
000000a0: 00dc 89b9 580c 3c3d 3fa5 3ebd bf44 59bd
000000b0: 7c58 6a3d 3327 9cbb a242 f9bc 2f59 9bbc
000000c0: d325 30bc ec70 7abc 3f92 763c 52f0 40bd
000000d0: 9036 643d adad ef3b fa84 debc b8c5 76bc
000000e0: 5e2b f6bc d77d bebd 90e0 56bd ab7d 9e3c
000000f0: 44af b43c f3af 3bbd 91cb 9fbc cd42 253d
00000100: 22b8 cd3b 1ba0 803d 8cfa c33c 4d94 50bd
00000110: 1019 873b fa2b c63b ccb6 4d3d 5e91 7fbc
00000120: 3c3c 9dbd f392 a43c 6752 953d 8a9a 41bd
00000130: abfe 593d 892c 65bd 031b d5bc ef0b 6dbd
00000140: 81f1 a53d fa0b 503d 2765 2cbd ed36 ea3c
00000150: 6ef6 9b3d 24cd b4bd 54c3 99bd ead3 13bd
00000160: 60b0 763d 0098 0dbc 0d39 90bd 14c3 a23c
00000170: ffcd c1bd b53b c1bd c6d3 65bd 3685 e5bc
00000180: 1394 8c3d ed25 ee3c fc3b 7bbd e09a 133d
00000190: c2fd 19bd edb3 91bc f6a6 333d 1788 efbc
000001a0: d138 a03b 3021 633d 1dc1 a83b d95c 8e3d
000001b0: f294 3a3c 4aac a8bd e885 cdbd 1aa3 e43c
000001c0: 3de5 2ebd 4b9f 0ebd 1175 f8bc 1c0d 853d
000001d0: 9180 3e3d 9b90 91bc c45a 30bd 56d4 623c
000001e0: ef5c 583c 0f03 74bc c7a1 b53c 7dc8 713d
000001f0: 02c8 ecbc 8dfe 9bbd f523 463d 8692 11bd
00000200: bef7 533d 38f2 19bb 06ea 3f3d 6bf0 af3c
00000210: 4003 49bd 7690 01be d35a daba 8ae0 7b3d
00000220: 03d7 91bd 2794 3bbd a739 1f3b 4855 2a3c
00000230: ebce 5b3d e78b 80bd 2536 a6bc 6200 a23c
00000240: c383 7cbc 42d9 37bd 31ec 89bc eea9 edbc
00000250: f5bb 5d3c 0ec4 0fbd 6785 3dbd b790 81bd
00000260: b3c6 7f3d b2ec 6ebc c6f5 8ebd 8529 a5bc
00000270: 5a3c 963d f5b4 4abd 1eda 113d 9c0e c93c
00000280: d332 4cbd c452 9bbc 81e4 d2bc 5578 0abe
00000290: b87c 8b3d 4754 4e3d 9bb6 1a3b d4ab c2bd
000002a0: bf6d 39bd effb 8d3d cbe8 cabb 2d2a d83c
000002b0: 4688 503d f9b6 043d c477 2ebd e06e 393c
000002c0: 697e 853d 16dc 79bd ddba 0e3d 7d25 61bd
000002d0: 99c4 0cbd f808 433c a010 96bd dcc9 29bd
000002e0: bd6c 703c 04d8 dabc 5cdf a5bc e872 e93b
000002f0: b6c0 bc3d da35 ea3c d018 3fbd db5a fbbb
00000300: 0c5d 8a3d 8224 b43d 7c9e 44bd 08ab a8bc
00000310: 989f 4a3d 86c8 c43c 8f82 bfbd d3c1 0a3c
00000320: a5e7 13bb 6d1d a1bd adb1 273d 79eb 8a3d
00000330: d621 743d d76e 943c c7ca c9bc 8b27 743d
00000340: fc6d 3abd 2a43 efbc 73ef 0abd cd65 95bd
00000350: 7105 9bbd 4bd2 7937 c7ba bd3d 5ed8 f4bd
00000360: e151 98bd 1326 ed3c 5322 a8bd b93a cfbd
00000370: 0262 3c3d be21 e7bc 73b2 01bc 5521 d4bd
00000380: c094 87bd 3196 193d 7600 083c 0404 e6bb
00000390: e085 b9bc c53f 123d bb2d 56bb 2321 033d
000003a0: 7e4f 883d a6f3 efba 1ce5 903d 8aa4 443d
000003b0: 698d 9f3d f2e7 2dbd df81 b83d 9900 013e
000003c0: d4ac 12bd 9536 0e3d 8f34 a8bb 19b8 473d
000003d0: feec c93c 69e9 14bd 8801 603d aa08 ba3d
000003e0: d94c fdbd 4ece b43d d329 433d d732 efbc
000003f0: aa19 b03d 8495 513d ac67 11bc b28f 543d
-0.027825002 -0.029987939 -6.433508e-05 -0.03800103 -0.015888048 -0.026762556 -0.060403287 -0.03477011
0.043115612 -0.060265325 -0.08525719 0.057550225 -0.062192447 -0.037921883 -0.02342319 -0.05610992
-0.03529526 0.030039284 0.018548118 0.067682095 -0.025067072 -0.07243949 0.010520217 -0.021243304
0.013813053 0.00015579611 -0.08131826 -0.06746177 -0.0747596 -0.033521906 0.07043526 -0.020505495
-0.0781241 0.06646771 -0.081765175 0.051326986 0.021069314 0.020948956 -0.088530794 0.043728646
-0.0002629459 0.04591021 -0.04654431 -0.053044077 0.05721329 -0.004765415 -0.03042728 -0.018963424
-0.0107512055 -0.015285712 0.015049516 -0.047104187 0.055716097 0.007314405 -0.027163018 -0.015061788
-0.030049976 -0.09301346 -0.052460253 0.019347033 0.02205623 -0.045822095 -0.019506248 0.04034691
0.006278054 0.06280538 0.023923181 -0.05092268 0.0041228607 0.006047723 0.050223157 -0.015598623
-0.076775044 0.020089602 0.072911076 -0.04726652 0.053221386 -0.055950675 -0.026013857 -0.05787271
0.08102704 0.05079267 -0.042088654 0.028590644 0.07615362 -0.0882819 -0.07507959 -0.03609077
0.060226798 -0.008642197 -0.070421316 0.019868411 -0.09463119 -0.09435216 -0.056110166 -0.028017621
0.068641804 0.029070819 -0.061336502 0.036036372 -0.037595518 -0.01778599 0.0438604 -0.029239697
0.0048895855 0.055451572 0.005149974 0.06951303 0.01138805 -0.082359865 -0.10035306 0.027909804
-0.042699087 -0.034819882 -0.03032926 0.06496641 0.04650933 -0.017769149 -0.04305531 0.01384457
0.013205751 -0.014893307 0.022171868 0.05902909 -0.028903965 -0.07616911 0.048374135 -0.035540126
0.051749937 -0.002349032 0.04685404 0.021476945 -0.049075365 -0.12652764 -0.0016659148 0.061493434
-0.07121088 -0.045795586 0.0024295838 0.010396309 0.05366413 -0.06276684 -0.02028949 0.019775573
-0.015412274 -0.044884928 -0.016836258 -0.029011693 0.013533582 -0.03509908 -0.0462698 -0.0632643
0.062445354 -0.0145828 -0.06980471 -0.0201614 0.0733573 -0.04948898 0.035608403 0.0245431
-0.049853157 -0.018960364 -0.025743725 -0.13522466 0.068108976 0.050373342 0.0023607376 -0.0950543
-0.045270678 0.06932818 -0.006192302 0.026387298 0.05091121 0.03240106 -0.042594686 0.011317939
0.065182514 -0.061000906 0.034846175 -0.054967392 -0.034367178 0.011903994 -0.0732739 -0.041452274
0.014674363 -0.026714332 -0.020248108 0.0071242936 0.09216444 0.028590132 -0.046654522 -0.007670743
0.067560285 0.08796026 -0.048002705 -0.020589367 0.049468607 0.024021398 -0.09351074 0.008469063
-0.002256849 -0.07866941 0.04094093 0.06783194 0.05960258 0.018119259 -0.024632825 0.059608024
-0.045515046 -0.029206831 -0.033919763 -0.072948076 -0.07569397 1.4890519e-05 0.092641406 -0.11955331
-0.07437492 0.02894882 -0.08209672 -0.10118622 0.045991905 -0.028214332 -0.007916081 -0.1035792
-0.06620169 0.03749675 0.008300891 -0.0070195217 -0.022646844 0.035705347 -0.0032681066 0.032014024
0.06655787 -0.0018306866 0.07074949 0.04800848 0.07790644 -0.04245753 0.09009146 0.12597884
-0.035809353 0.034720022 -0.0051332186 0.048759554 0.02464914 -0.03635541 0.05468896 0.09083684
-0.12368173 0.08828412 0.04764731 -0.029199047 0.08598645 0.05116798 -0.008874815 0.05189485

hidden2.bias f4 [64]
00000000: 8324 783d 94d4 3f3d bd89 063d 2402 863d
00000010: 98c8 bebb 145c f6bc 3846 d0bc 52e3 8abd
00000020: d229 8ebc c131 9c3d 37c1 44bd 406d 003e
00000030: 9afb 79bd c95f ac3d 11d6 8f3d b3f0 c13c
00000040: 39b3 6abc 5312 b03d 66f3 cdba 0301 b13c
00000050: c232 f23d 1bf3 bc3d 666e 653d a262 013e
00000060: e615 af3d dc53 153e 562d dc3d f998 c13d
00000070: 9ab1 3c3c 07f6 873c 2d48 423d fa63 4abd
00000080: 02b9 8abc 0ea1 6e3d e295 53bc 908e db3d
00000090: 3f46 ebbc 8224 7d3c a07c 3b3d 0d6e fe3d
000000a0: 6a45 b9bd a1c5 933d bc3e 13bd aac8 22bd
000000b0: 16d0 113d 95b4 7abd 5d61 9e3d d98a 0bbd
000000c0: 9e1f 63bb d34b 7f3c da1a 013e 9ff2 8e3d
000000d0: 2ee4 43bd 376b 2b3e 9a1d 413d bc36 4a3e
000000e0: 8b81 103a 1e87 853d 775c d93d 6c87 133e
000000f0: 948d abbc 15e1 31bd 8e5e 46bd fac2 133e
0.060581695 0.04683359 0.0328462 0.06543377 -0.0058222525 -0.030073203 -0.025424108 -0.06781639
-0.017353926 0.07626677 -0.048035827 0.12541676 -0.06103096 0.08416707 0.07023252 0.023674345
-0.014324957 0.08597245 -0.0015712797 0.021606928 0.118260875 0.09226056 0.056013487 0.12635282
0.08549099 0.14582771 0.10750835 0.09453005 0.011516953 0.016596807 0.047432113 -0.04941175
-0.016933922 0.058259062 -0.012914153 0.10720551 -0.02872002 0.015450599 0.04577315 0.12423334
-0.09046443 0.07215429 -0.0359485 -0.03974215 0.035598837 -0.061207373 0.07733414 -0.034067962
-0.0034656296 0.015582043 0.126079 0.0697987 -0.04782503 0.16740118 0.04714737 0.19747442
0.00055124675 0.06519912 0.106133394 0.14407128 -0.020941533 -0.043427546 -0.048430018 0.14429846

hidden3.weight f4 [32, 64]
00000000: 999c 41bd 2dd3 2e3d c8c2 cfbd 1e50 133d
00000010: 2be9 183d f95a 08be 5ae6 3fbd 6051 d73d
00000020: 1fe3 e8bd c426 b0bd b0fe 1e3c 419f 55bc
00000030: 2879 febc c235 b23d 7b22 67bd 84c2 07be
00000040: 1868 d43d cff4 94bd e80a 873a 4c18 d33d
00000050: 49ac 09be f882 78bd ecc3 3e3c 47bc 153d
00000060: d9a9 b2bd fe0a eb3c 67e2 dd3b 7cd5 fbbd
00000070: cabc b7bc 7180 ebbd 445b 27bd 858d 59bd
00000080: a431 b43d bbf2 d0bc 404c 25be f626 f1bd
00000090: 82ea 04bd 7c57 e93d 723f 003c 78b6 e23c
000000a0: b1a4 c5bd ac4f 4a3d 3c73 8abc ef07 6f3d
000000b0: bdf2 8a3d 558b 633d 701b 0fbd 26a9 b23d
000000c0: 43d9 50b9 5ba9 033e cae4 cf3a 9f78 a1bd
000000d0: 7b8d 8b3d 0484 9fba 5448 233d 26d2 a23b
000000e0: d229 d73d 5fa5 c73d a9ea 02be abb0 08be
000000f0: f469 163d b7a7 6a3d 64ea 35bd 1663 c83d
00000100: a9b4 e33d 25d4 a63d 676c cc3d 3a7e f0bd
00000110: 79f4 0c3d f47b 27bc 4ec9 573c 81ea 12bd
00000120: 9663 ef3b e217 af3d 0026 a83b b12c 82bd
00000130: a842 b33d e544 7c3b 2dcb e8bd 8d75 00be
00000140: 6f12 283c 10c5 59bc efe8 ad3d 202a 9b3d
00000150: b0e1 c03c fa7e 823d 586a 4e3d 921b 893d
00000160: ecf0 ba3d b345 9cbd ad27 80bd 36be 75bd
00000170: ce24 4ebc 8f28 1b3d 51f9 ddbd f507 dfbd
00000180: 6725 6fbd 9415 85bd 1b86 7dbc 323b b43d
00000190: 456b 48bc 3dff 6a3d dbde 1abc e121 a3bd
000001a0: 6811 febd 3a00 eabd 3746 82bc 8f00 e63d
000001b0: dcf7 89bd 2497 fb3b 0915 08be 2057 6d3d
000001c0: 1584 cc3d 64ed 17bd 04e5 983b ff76 68bd
000001d0: 6ab9 e6bd c43e d13d 8bc9 c5bd 3baf 383d
000001e0: a32c 8abd 9548 76bd 876a 6cbd 78a1 20bd
000001f0: aded 983d 4a09 d73c 6663 e23d b2af 913c
00000200: f8bb 143d e1c9 073d 32e4 dc3d bdb2 033e
00000210: fc9d c1bd 3bd3 833c ffd0 2dbd 1993 683d
00000220: dba5 18be 3db2 4d3c 7082 133c 1956 abbb
00000230: 5e22 15bd 993b 2dbe 568f 2ebe 36ab 6e3c
00000240: f0dc b43d bdb4 5dbd d29d 26be de64 dc3c
00000250: 891f f9bd 39a3 79bd 0bcb 4cbd aa34 7f3d
00000260: 04a3 b23d 2a8f 21be 3961 debd 2006 96bc
00000270: 7085 3b3d 2425 48bd aad7 b23d c007 babc
00000280: 690a 933d 1e47 a8bc c2a5 74bd 6029 d8bd
00000290: 46dd 913d 78b7 993d f8c0 c53d 74a2 b2bd
000002a0: 2902 febb 5bfa f8bc 5bce 033e ea2f d8bd
000002b0: 8ba1 d5bd a212 103d c779 88bd d488 9c3d
000002c0: 3303 403d 2676 95bd 177f bcbd 836c f23d
000002d0: fbde 3fbe fd90 c7bd 7009 553d ff79 32bd
000002e0: 18af 5b3d 7a6d c9bd 2766 62be f288 8e3d
000002f0: c417 bebd 2b20 653c befe dbbd 6108 47bd
00000300: e0d0 b4bd 7bc1 6a3d 98c7 803d 3d00 31bd
00000310: 1d1d 9bbc 6f3b fb3d 7a81 863d 92e7 cc3c
00000320: c049 45bd 0093 03be 7ee2 9cbd 312d 88bc
00000330: d5f3 f2bd 46ea 193e 3ce7 8a3d 26c6 b43d
00000340: 2fba 3ebe 234d 723d fe91 8c3d 2a5a db3d
00000350: 69d7 95bd a6ea 64bd 22c5 7dbd 640d a13d
00000360: f97f 15bd 5daf 083e 64e9 463d 37f9 90bd
00000370: badb efbd d4f2 193d b4b4 e4bd bba4 cebc
00000380: 9847 c9bd 8cc8 2f3d b751 ce3c f7e9 b4bd
00000390: 00ed 74bd dd67 76bd 83e7 60bd 1dc3 283d
000003a0: a552 0bbe 76db d03d 5143 62bd 1ef1 0b3e
000003b0: cba2 6a3d bc03 66ba 4a0d 463d 9ca7 1c3e
000003c0: fcff 00be a901 39bd 0b99 6a3d 7c44 f7bb
000003d0: 9527 543c 4c2a dcba 5bd6 5e3d 8811 a1bd
000003e0: 38db 2a3d 08a7 f63d 4375 16bd 39a9 873d
000003f0: 8448 ebbd 1780 e83c 4c6f 8b3d 960e 523d
-0.047268484 0.04268186 -0.101445735 0.035965078 0.03733174 -0.13315953 -0.04685054 0.10513568
-0.11371445 -0.08601144 0.009704277 -0.013038457 -0.031063631 0.0870166 -0.056429368 -0.13257796
0.10371417 -0.07273256 0.0010302933 0.10307369 -0.13444628 -0.060671777 0.011643391 0.03655651
-0.08723802 0.028691765 0.006771374 -0.12296578 -0.022428889 -0.11499108 -0.040858522 -0.05311348
0.08798531 -0.025506368 -0.16142368 -0.11775009 -0.032450207 0.113936394 0.007827627 0.027674899
-0.09650553 0.049392387 -0.016900651 0.058357175 0.0678458 0.0555528 -0.034938276 0.08723669
-0.00019917362 0.12857573 0.0015861031 -0.07884335 0.06814095 -0.0012170081 0.0398639 0.0049688993
0.105060235 0.09748339 -0.12784828 -0.13348643 0.03672214 0.05728885 -0.044412985 0.09784524
0.111184426 0.08145932 0.099816136 -0.11742826 0.034412835 -0.010222424 0.013170553 -0.03586817
0.0073055727 0.08549477 0.005131483 -0.063561805 0.08752948 0.0038493213 -0.11366878 -0.12544842
0.010258301 -0.013291612 0.08491694 0.07576394 0.023545116 0.06371875 0.050394386 0.06694712
0.091279835 -0.076304816 -0.062575676 -0.059995852 -0.012582017 0.037880477 -0.10838569 -0.108901896
-0.05838528 -0.06498256 -0.015473868 0.08800353 -0.012232606 0.05737232 -0.009452547 -0.07965446
-0.12405664 -0.114258245 -0.015902622 0.11230575 -0.067367285 0.0076779295 -0.13289274 0.057944417
0.0998613 -0.037091628 0.0046659727 -0.05675411 -0.11265834 0.1021705 -0.09657582 0.045088988
-0.06746795 -0.060127813 -0.05771878 -0.03921649 0.07467208 0.026249547 0.11054115 0.017783973
0.036312073 0.03315151 0.10785712 0.12861152 -0.09453961 0.016091933 -0.042435642 0.05678091
-0.14907019 0.012554702 0.009003267 -0.0052287695 -0.03640973 -0.16917266 -0.17046866 0.014567187
0.08831203 -0.054127444 -0.16271141 0.026903566 -0.12164218 -0.060946677 -0.049998324 0.062306084
0.08722499 -0.15777269 -0.108583875 -0.018313468 0.045781553 -0.048863545 0.08732541 -0.022708774
0.0717972 -0.020541724 -0.05972839 -0.10554767 0.07122283 0.07505697 0.096559465 -0.08722392
-0.0077517224 -0.030392816 0.12871687 -0.10556014 -0.104312025 0.03517402 -0.06663852 0.076432854
0.04687805 -0.07297926 -0.09203928 0.11837103 -0.18737404 -0.09744451 0.052010953 -0.043573376
0.05363378 -0.09835334 -0.2210928 0.06959714 -0.09281877 0.01398472 -0.107419476 -0.048591975
-0.08828902 0.057313424 0.062880695 -0.043213118 -0.01893478 0.122671954 0.065676644 0.025012765
-0.048166037 -0.12849045 -0.076603875 -0.016623111 -0.118629135 0.15030774 0.06782386 0.08826856
-0.18625711 0.059155595 0.06863783 0.10710557 -0.07316477 -0.05588784 -0.06195558 0.07863882
-0.036498997 0.13348146 0.048562422 -0.07078784 -0.117118314 0.037585095 -0.11167279 -0.025225034
-0.098281085 0.042915866 0.025185449 -0.08833688 -0.059796333 -0.060157645 -0.054908287 0.0412017
-0.13605745 0.10198109 -0.05523998 0.13666198 0.057284158 -0.000877436 0.048352517 0.15298313
-0.1259765 -0.0451676 0.05727486 -0.007546006 0.01294889 -0.0016797273 0.054403644 -0.07864672
0.04171297 0.120435774 -0.036732923 0.066240735 -0.11488441 0.02838139 0.068083376 0.05128344

hidden3.bias f4 [32]
00000000: f3b6 9abd 577c 723d 138b d23c c67c 0cbe
00000010: dd4c d13d 8108 83bd da16 3e3e 50bb 443d
00000020: 1f50 c73c 70ee 8ebd 83d6 923d a0b4 89bc
00000030: b882 92bd 3526 11bc 42cf 9b3c 88b6 073d
00000040: a03a 403d 14ce a23d b6a3 eebd f03a fcbd
00000050: f8b6 cfbd 7354 6abd 3e53 9f3d 7dea c03d
00000060: 87a7 b8bd aafc 823c 0820 17be 38cf a73d
00000070: 7159 bebd 30c8 84bd c541 fd3c ebbe 333e
-0.07554426 0.05920061 0.025701081 -0.13719472 0.10219739 -0.06398106 0.18563405 0.048030198
0.024330197 -0.06979072 0.07169821 -0.016809762 -0.07153839 -0.008859207 0.019019727 0.03313306
0.04693091 0.079494625 -0.11652319 -0.12315929 -0.101423204 -0.057209443 0.07779549 0.09419725
-0.09016328 0.01598962 -0.14758313 0.08193821 -0.09294403 -0.06483495 0.03091515 0.17553298

output.weight f4 [9, 32]
00000000: 9394 e43d 7ff0 30bd 15af b1bd f5f9 9dbd
00000010: ef1c 383d 3b26 ae3d 5b1a ba3d 9373 a7bc
00000020: 1e95 683d 3e49 8fbe 43cb 103d 3340 10bd
00000030: 741e 903d 45c8 b8bd 8231 62bd e9ad 95bd
00000040: 5e78 e73d 82d0 383e 851c 09be f36a 193e
00000050: 46dd fcbd 6179 99bd c9b0 ee3d 8904 4d3e
00000060: c609 debd be8b 4ebe ab2e 0ebd b643 82bd
00000070: 0c29 5c3c ecfb 2bbd d530 05be 6600 c1bc
00000080: 2c15 243e fb50 efbd bf79 3d3d d00a 0dbe
00000090: 146e 203d f544 1b3e 2613 ddbd 8da1 823e
000000a0: 5ea9 4c3d b81b e33d 46c1 173e b545 e73c
000000b0: 90c6 923d c42a 2f3d ab96 213d 7f70 003e
000000c0: ba4e 353e 74f0 58bd 3006 013d cad0 b0bd
000000d0: 804d 07be b753 0fbd d2f5 e5bc 9367 b73d
000000e0: 95b4 9bbd aae1 83bd 711e cbbd dfde a13d
000000f0: 9ffc 973c 09d2 23be 91c9 ed3c f51b 153e
00000100: 35d9 d0bc 0a07 71bd c728 7abc 0748 27be
00000110: 048c cf3d 36b0 20be 718a 5d3e 41e0 1a3d
00000120: 7182 f73d f137 8b3c add7 b63c 49db 373d
00000130: 1784 2ebe 3a67 613e 3c1f ac3c c591 293e
00000140: c605 4abc 00b3 f03d 9ed5 62bd d01a 5bbc
00000150: 9b92 15be a383 2cbe 66b0 b83d ee90 e6bc
00000160: 0c5d d9bd aae7 96bd 990f a8bb 9902 00be
00000170: 38aa bbbd c164 f33d 2fbd d93d 12f5 393e
00000180: d11b babd 26a8 0f3c 0a4d 6ebe 9cf0 2c3e
00000190: 1a00 90bd b8e6 31be 456e b1bc 0940 bcbc
000001a0: a044 98bd 2c3e c1bd 267f 1dbe dbcb 123e
000001b0: 0021 d63c 8b35 43bd 5f7d 70bd 01d8 a33d
000001c0: efb6 bc3d 3767 543c 802d ddbc 6ef4 bdbd
000001d0: bbf7 21be 313e 52bd 6fa2 1bbe 717f d2bd
000001e0: e9dd 803d 2166 28be 1cf1 a2bd 403c 4a3e
000001f0: b1f2 d63d 18ca 1f3c a94a 1abe 2ceb 603e
00000200: 3ee4 93bd eb60 353d 24d6 96bd 0064 45bd
00000210: 0bfd d23d 25aa 0c3e 7c72 d4bb 1955 283e
00000220: a03d d0bd 35c2 a8bd 9427 2f3e 105d 67ba
00000230: 0110 843d 4a62 07be d516 383d 47b2 243d
00000240: 5462 1e3d 8d04 b43d 722c 24be 4a01 10be
00000250: 0feb acbd 9615 213d 7d27 a1bb 500d 283d
00000260: 5a1b bd3d 5eea 23be 7322 223e b9b5 b93d
00000270: f53c 92bc 17b3 2e3e f7d1 fdbd 0cac c23d
00000280: 015e 08be 5b03 863c a490 89bd b133 693d
00000290: e084 a23d d383 5cbd 3129 933d 66e6 fb3d
000002a0: 1fd7 1f3d e563 3e3d 2abc 79bd 76f9 1c3e
000002b0: e65f de3d 8e7d 60be a1c9 52be 72aa 013e
000002c0: c9a4 a23c 7f2e 073e 35c5 8fbd 4004 fe3b
000002d0: fe4e da3d 75c5 22be 57f5 66be b7fb 443e
000002e0: 885c 263e 0a31 32be ecc7 26be 89ee 0dbd
000002f0: bd01 00be 86e1 bdbc ae5c 4d3d 33e6 6dbd
00000300: 32a6 33be 6801 16bd 18f4 06be 2eb3 13be
00000310: 8524 e83d adf9 283e 9e72 c03d 80e3 433e
00000320: 7087 0ebe 4cd7 e5bd 66a1 83bd 40b6 863d
00000330: 80ba 0a3b 3ce6 97be aba5 153e 56a5 073e
00000340: a3f3 883d a337 8a3d 9893 a7bc d4ff 4f3d
00000350: a6e5 1bbe ffc4 d63c 15a7 453d 0ad0 c3bc
00000360: b9cb 223e a6d3 23be d5d1 efbd 523e 213e
00000370: 7f52 0a3b 798e ccbc 996d c6bd b0c7 8dbb
00000380: ee8a 74bd 6626 413e ece4 493d c62a fcbd
00000390: d444 273d bb56 0bbe 46c6 52bc 3047 e33c
000003a0: 2366 aabd 56a0 983d b2d5 733c 3cbf 3a3e
000003b0: 957b d4bd fbbc e23c 7c1c 66bc 93c9 e5bd
000003c0: 18da 86bd 130a 3f3c f1ab f1bd 94c3 f9bd
000003d0: 34ea 28bd 87d4 67bd cc7e 8d3c 2021 0a3e
000003e0: d199 12be f928 29bd 84c0 06be 436b a23d
000003f0: cd46 a83d f701 bfbd 54ef 26be e8a1 263e
0.11161151 -0.043198105 -0.08675972 -0.07713691 0.04494947 0.08503386 0.09087058 -0.020440852
0.056782834 -0.27985567 0.035350095 -0.035217475 0.070370585 -0.090225734 -0.055222996 -0.07308561
0.11302255 0.1804829 -0.13389786 0.14982204 -0.12346892 -0.07493854 0.11654813 0.20021261
-0.10841708 -0.20170495 -0.034712475 -0.06360571 0.013437521 -0.0419883 -0.13006909 -0.02355976
0.16023701 -0.11685368 0.046258684 -0.13773656 0.03916748 0.15163024 -0.10794668 0.25513878
0.04996621 0.11089271 0.14819822 0.028231481 0.07166779 0.042765394 0.03945033 0.12542914
0.17705813 -0.05296369 0.03150004 -0.08633573 -0.13213158 -0.034991946 -0.028071318 0.08955302
-0.07602803 -0.064395264 -0.099179156 0.079038374 0.018553076 -0.15998091 0.029026778 0.14561446
-0.025494197 -0.058844604 -0.015268511 -0.1633607 0.10134128 -0.15692219 0.21634842 0.03781152
0.120854266 0.016994448 0.02231964 0.04488686 -0.17042576 0.22012034 0.021010987 0.16559513
-0.012330478 0.117528915 -0.055379502 -0.013373092 -0.14606707 -0.1684709 0.0901802 -0.02814528
-0.106134504 -0.07368405 -0.0051288125 -0.12500991 -0.09163326 0.11884452 0.10631787 0.18159893
-0.09087337 0.008768117 -0.23271576 0.1688866 -0.07031269 -0.17373168 -0.021659026 -0.022979753
-0.07434964 -0.094356865 -0.15380535 0.14335577 0.026138783 -0.047658484 -0.058713313 0.08000184
0.09214579 0.012964061 -0.026999235 -0.09275137 -0.15817158 -0.05132884 -0.15198682 -0.10278214
0.06292326 -0.16445209 -0.07956144 0.19749546 0.104955085 0.009752773 -0.15067543 0.21964711
-0.07221268 0.04428188 -0.07365063 -0.04819107 0.1030217 0.1373678 -0.006483374 0.16438712
-0.10168004 -0.08240167 0.17104942 -0.0008825818 0.06448365 -0.13221088 0.04494365 0.04020908
0.03866799 0.087899305 -0.1603258 -0.14062992 -0.08443271 0.039327227 -0.0049180374 0.04102832
0.092337325 -0.16007373 0.15833454 0.09067864 -0.017851332 0.17060505 -0.12393563 0.095054716
-0.1331711 0.016359022 -0.06717041 0.056934062 0.079355 -0.053836655 0.07185591 0.122998044
0.039023515 0.046481986 -0.060970463 0.15329537 0.10858135 -0.21922895 -0.20584728 0.12662676
0.019853966 0.1320133 -0.07020036 0.0077519715 0.10659598 -0.15895636 -0.22554527 0.19236647
0.16246235 -0.1740152 -0.16287202 -0.034651313 -0.12500663 -0.023178827 0.050137214 -0.058080863
-0.17543867 -0.036622435 -0.13179052 -0.1442382 0.113350905 0.16501494 0.093968615 0.19129753
-0.13918853 -0.11222705 -0.06427269 0.0657773 0.0021168292 -0.29667842 0.14613979 0.13246664
0.06687095 0.06748893 -0.02045612 0.050781086 -0.15224323 0.026216982 0.048255045 -0.023902912
0.15898027 -0.15998706 -0.11709944 0.1574643 0.00211063 -0.02497028 -0.09688873 -0.004326783
-0.059702806 0.18862304 0.049290583 -0.12312846 0.040837124 -0.13607304 -0.012864655 0.027743906
-0.08320262 0.07452457 0.014882492 0.18237013 -0.10375134 0.027678004 -0.014044877 -0.11220088
-0.06584567 0.011660117 -0.11800373 -0.12195507 -0.04123898 -0.056599166 0.017272376 0.13489199
-0.14316489 -0.04129884 -0.13159376 0.07930615 0.08216629 -0.09326547 -0.16302234 0.162727

output.bias f4 [9]
00000000: 7326 253e fc21 8b3d 36a0 8cbc b3d0 993d
00000010: 7271 263e 910f c43d 2c55 403e 2dde 303d
00000020: 0e0f f63d
0.16127948 0.067935914 -0.017166238 0.07510509 0.16254213 0.095732816 0.1878249 0.043180633
0.1201459
