Tic-Tac-Toe-Minimax/tic_tac_toe_model.pth (torch, 49976 bytes, 7 tensors)

input.weight f4 [128, 9]
000000 a2 a4 5c 3e 35 85 a8 be 4f 26 d5 3d b9 c3 7e 3e
       0.21547177 -0.3291413 0.104076974 0.2487935
000010 c2 3f 06 3e 49 53 33 be 78 91 a5 3d 98 46 e1 be
       0.13110259 -0.1751224 0.080843866 -0.4399917
000020 26 49 b7 3e e7 86 1a 3e d9 36 1b be 92 14 31 bd
       0.35797995 0.15090524 -0.15157641 -0.043232508
000030 a3 f3 a6 bd f7 6a 81 3e 5f 79 ad be b2 c0 43 3e
       -0.08151939 0.2527692 -0.3388166 0.19116476
000040 52 4f 08 3e 3b 55 d4 3d f4 c3 d5 be af 3b 42 be
       0.13311508 0.10367819 -0.41751063 -0.1896808
000050 fe 5d 5c bd 3a d8 a9 3e 1d c6 53 3e 95 e1 9f 3e
       -0.053800575 0.3317278 0.20681043 0.31226793
000060 6e 02 c2 bc 74 6b 89 be 6b 58 92 3d 6c af 95 3e
       -0.0236828 -0.26839793 0.07145771 0.292354
000070 2d 2e 6f be c1 1c 60 3e 9b 1c bd 3e b9 72 9f 3e
       -0.23357458 0.21885969 0.36935887 0.31142214
000080 73 89 e1 3e 30 46 9d be 50 94 a0 be f5 92 19 be
       0.44050178 -0.3071761 -0.31363153 -0.14997466
000090 d0 e7 b0 be 0b de 45 bd 4e 1a 90 bd 4d b3 c2 be
       -0.3455186 -0.04830746 -0.07036267 -0.3802742
0000a0 2f 69 11 bd 4b 71 61 bd 37 1a 3a 3e cf a9 2d 3e
       -0.0355007 -0.055039685 0.18174063 0.16959308
0000b0 e0 0a 48 be 31 19 13 be eb 17 1b be b0 5b c1 be
       -0.19535398 -0.14365079 -0.15145843 -0.37765265
0000c0 3e 10 d6 3e 45 60 28 be 3f 78 06 3e 75 51 e5 bc
       0.41809267 -0.16442974 0.13131808 -0.027992943
0000d0 04 63 87 be 84 0f a2 3d e4 92 d2 3d aa f4 f6 3e
       -0.2644273 0.079131156 0.102819234 0.4823354
0000e0 c1 8b 8e 3e db 9d bc bd f0 52 6b be b9 9c 28 be
       0.27841 -0.09209796 -0.22980857 -0.16466035
0000f0 15 34 a0 3e 53 31 08 be 74 b4 52 be 81 18 0a be
       0.31289735 -0.13300066 -0.2057665 -0.1348591
000100 6b 91 40 3e b3 3c d4 3d d8 a4 c8 bd 2e 51 a5 3d
       0.18805473 0.1036314 -0.097970665 0.080721244
000110 56 d1 ba be c5 46 dd be 94 30 22 3d 77 24 f6 bd
       -0.36487836 -0.43218055 0.03959711 -0.12018674
000120 13 52 d5 bd 33 61 0d be 78 02 88 be bb 77 18 be
       -0.10416045 -0.1380661 -0.26564384 -0.14889424
000130 85 0b 8d 3e 1f 3b 97 bd 9c 7c ae be 09 5e 1c 3d
       0.2754785 -0.07384323 -0.34079444 0.038175616
000140 3f fc ad 3d 06 2f 96 3e 22 ba 1e 3d b3 63 f7 3c
       0.08495378 0.2933275 0.03875173 0.030198907
000150 ca 25 0e be fb f9 ed 3d f0 6e e0 3d f4 be 89 bd
       -0.13881603 0.116199456 0.1095866 -0.067258745
000160 57 30 a6 be ee dd 98 3e 25 5c db bd 0b 13 8a 3e
       -0.32458755 0.2985682 -0.107109345 0.26967654
000170 ce 01 6e 3e 18 93 0f 3e 7a 73 ae be 92 a5 2a 3e
       0.23242876 0.14020956 -0.34072477 0.16664723
000180 2e 3e 02 be 36 70 0f 3e 6f 76 90 be a1 5e 08 3c
       -0.12719032 0.14007649 -0.28215358 0.008323343
000190 f7 8d 6a 3e a1 98 56 3e 5a 94 0b be 5d 05 f5 bd
       0.22905718 0.20956661 -0.1363081 -0.119639136
0001a0 fe bf 83 bd ce 63 8f bc 76 1a 7d 3e 15 4d 03 3d
       -0.06433104 -0.017503645 0.24717125 0.032055933
0001b0 0f ce 92 3d 39 40 c8 bc dd c8 59 be ea a2 fb 3e
       0.07168209 -0.024444686 -0.2126803 0.4914773
0001c0 dd d4 32 be 86 1e 58 3d a0 4a 84 3c 87 e0 1c bd
       -0.17464013 0.052763484 0.016148865 -0.038300063
0001d0 93 22 a2 3d 63 49 a2 be 79 7c 93 3e 22 25 86 3d
       0.07916751 -0.31696615 0.28805903 0.06550051
0001e0 6f c7 79 be 7c d8 4d 3e b9 5e 26 3e d1 8e 80 be
       -0.24392484 0.20102113 0.16247071 -0.2510896
0001f0 09 67 81 3e 92 0e ad be 72 ed 60 bd 94 2e 4e 3e
       0.25273922 -0.3380018 -0.054913945 0.20134956
000200 98 3b 5e 3e 6d 5d 1c 3e ed e1 84 3e 24 2c 49 3e
       0.2170242 0.15270014 0.25953618 0.19645745
000210 49 8f c2 3d e7 6c b2 3e f8 36 32 3e 54 b2 41 3e
       0.09499986 0.3484871 0.17403781 0.18915683
000220 b5 67 19 3e 9e 63 d0 be d7 7d 51 3e cc a9 a5 be
       0.14980967 -0.40701002 0.2045816 -0.32356107
000230 cd 5a 63 be 58 01 00 3f a6 1c 67 3e f7 8f c1 3e
       -0.22202606 0.5000205 0.22569522 0.3780515
000240 ec ed 4f be 09 75 80 3d 52 17 e2 bd 9a 3e 42 3e
       -0.20305604 0.06272323 -0.11039604 0.18969193
000250 22 69 9d 3e 7b a8 d2 3e ff fe 95 3d 20 d8 f9 bb
       0.30744272 0.41144165 0.07324027 -0.007624641
000260 e5 02 d4 3d 4e 6c 40 be 97 87 ab 3e e2 1d ce 3b
       0.103521146 -0.18791315 0.33501884 0.0062901834
000270 3c 47 76 3e e3 6c 8e be 83 8c 2b 3e 89 66 cf 3c
       0.24050611 -0.2781745 0.1675282 0.025317447
000280 cb c0 6d be 47 aa ca 3e 9a bb 93 be 46 40 06 be
       -0.23218076 0.39583036 -0.28854066 -0.13110456
000290 38 98 32 be 9a 17 90 3d 76 ba 43 bd 22 e0 0e be
       -0.1744088 0.07035752 -0.047785245 -0.13952687
0002a0 cc ae 85 3d e1 e6 0c be 5c cc 31 bd 4a 55 31 3e
       0.065274805 -0.13759948 -0.043407783 0.17317691
0002b0 94 b6 80 3e f3 26 51 3e 81 74 ae bd 70 55 b7 be
       0.25139296 0.20425014 -0.08518315 -0.3580737
0002c0 69 63 92 be da 9f 9c be d9 1b 72 be 67 2b 41 3e
       -0.2859147 -0.30590707 -0.23643436 0.18864213
0002d0 89 64 89 be 18 a4 24 be 3b 90 4d 3d 05 d3 c6 3e
       -0.26834515 -0.16078222 0.050186377 0.3883287
0002e0 6d 82 87 bd 38 e5 bb 3d 92 5e da be 60 51 35 3e
       -0.066166736 0.091745794 -0.42650276 0.17706823
0002f0 1c 0b 4b 3d d0 b2 b6 3d 5d a2 8a 3c 70 bb 34 be
       0.04957114 0.089208245 0.016923124 -0.17649627
000300 01 c5 a6 3e e5 91 c4 3e 04 94 b8 bd fa 03 d4 3d
       0.32572177 0.3839256 -0.09012607 0.10352321
000310 3c 71 ea 3b ea 2e d2 3b bd 5c 90 3c 50 04 f6 3d
       0.007154612 0.006414284 0.017622346 0.12012541
000320 ab be 12 be 81 d9 fe bd 23 9a d2 bd 2a 79 a6 3e
       -0.14330547 -0.12443829 -0.102833055 0.32514316
000330 bc 44 56 be ff 28 f5 bc 77 47 8c be 02 b7 0c bd
       -0.20924658 -0.029926775 -0.27398273 -0.034354217
000340 15 ab d3 be 70 28 4b be ac db a8 bd 9e 2c 33 3e
       -0.41341463 -0.19839644 -0.08245024 0.17497489
000350 4a f1 62 bd a3 68 6f be 0e 1b ca 3e cf bb 13 bc
       -0.055405892 -0.2337976 0.39473766 -0.009016945
000360 f1 2c 82 3e d1 5d 7b 3e c2 be 46 be 33 f9 96 3e
       0.25424913 0.24547507 -0.19408706 0.29487
000370 c1 ad 27 3e 0e 66 91 3e 16 6b ff bd 98 df 60 be
       0.16374876 0.28398174 -0.12471597 -0.21960294
000380 77 12 ab 3e dc 81 1b 3e e3 6e 41 3d 54 1d 16 3e
       0.33412525 0.15186256 0.04722489 0.14659625
000390 c1 d9 1d be 7a 08 62 3e 57 f8 85 be 21 7a b9 bd
       -0.15415098 0.22073546 -0.2616603 -0.09056497
0003a0 56 7a 4c be 1c 66 23 3e d6 64 b7 be 7a 10 44 3e
       -0.19968542 0.1595692 -0.3581912 0.1914691
0003b0 10 e2 bf bd 6f 3e 82 be c7 23 2f be 93 ae 95 be
       -0.0936929 -0.25438258 -0.17103492 -0.29234752
0003c0 f7 5b ca be 64 65 19 3e 06 36 98 3e 15 d5 4a 3e
       -0.3952329 0.14980084 0.29728717 0.19807847
0003d0 66 63 b4 3e 46 ff e7 3e 62 69 72 3d b1 48 a1 be
       0.35232085 0.45311946 0.059182532 -0.31500772
0003e0 72 1a 7c 3e f5 55 40 3e fd d7 c7 3d 2b f7 1f be
       0.24619463 0.1878279 0.09757993 -0.15621631
0003f0 20 c2 58 3e a2 fc 98 bd fa 1d 61 be 2c a8 94 ba
       0.21167803 -0.07470061 -0.21984091 -0.0011341623

input.bias f4 [128]
000000 35 e7 ba bd 2c 1f a3 3e 3f f9 9a 3e b9 f5 2d bd
       -0.091261305 0.3185972 0.30268285 -0.042470668
000010 41 83 ce be a6 ba 80 be a6 a0 41 be bd 40 3e 3e
       -0.40334514 -0.251424 -0.18908939 0.18579383
000020 53 26 89 3e c7 1d 05 be e5 df 83 be db 35 a7 be
       0.26787052 -0.1299964 -0.25756755 -0.32658276
000030 ac 05 56 be 79 f0 0c be 65 27 9d 3e 14 f1 b8 3e
       -0.20900601 -0.13763608 0.30694118 0.36121428
000040 20 28 9d be 19 ec bf bd 49 35 24 be 24 d6 23 3e
       -0.30694675 -0.09371204 -0.16035952 0.15999657
000050 02 b9 32 3e 4d 86 9f 3e ba 03 7a bd 38 cf 40 be
       0.17453387 0.3115715 -0.06103871 -0.18829048
000060 10 ff 43 3e 34 5f 5e be c5 b8 b9 bd 55 ef 9a be
       0.19140267 -0.21716005 -0.09068445 -0.3026072
000070 18 27 84 3e f1 b0 8a be 16 f4 51 be 20 f9 64 3e
       0.25811076 -0.2708812 -0.20503268 0.22360659
000080 b1 65 71 3e d3 c2 27 3e bc 07 5a bd 0c 14 7c be
       0.23573948 0.16382913 -0.053230032 -0.24617022
000090 ea 45 1f bd 37 a5 ba 3e 0c bb 18 3d e1 22 9e 3d
       -0.038885035 0.36454174 0.037287757 0.077214964
0000a0 bb 0c 97 3e 36 01 ad be 06 5c 4b be ed a9 8e 3e
       0.295019 -0.33789986 -0.19859323 0.27864018
0000b0 40 d0 87 3e e4 40 66 3e c1 8a 6b 3e cf f7 08 bc
       0.2652607 0.22485691 0.23002149 -0.008359863
0000c0 c3 fb 71 3d c4 37 b9 be 65 5c 97 be 38 26 96 3e
       0.05907799 -0.36175358 -0.2956268 0.29326034
0000d0 77 a1 97 3e 91 7f a6 be 46 94 28 3e 12 02 ba 3d
       0.29615375 -0.325192 0.16462812 0.09082426
0000e0 a8 ea a4 be 0d e1 be be ec a4 7a 3e 84 d1 87 3e
       -0.3221028 -0.37281075 0.24476975 0.26527035
0000f0 a1 4d a7 be 65 15 3b 3e 7a 3b be 3d f2 95 13 3e
       -0.32676414 0.1826988 0.09288688 0.14412668
000100 12 b5 73 3e 6f 18 17 3e e0 43 78 be 47 37 d1 be
       0.23799542 0.14755414 -0.24244642 -0.40862486
000110 b9 d9 1e 3e fb 1b 9e be 1d 95 40 3e 83 8f 0e 3e
       0.15512742 -0.30880722 0.18806882 0.13921933
000120 32 9a 7f 3e 71 95 46 3e 98 58 04 bd 0e 76 8e 3e
       0.24961165 0.19392945 -0.032311052 0.27824444
000130 0e 04 95 3e ea f1 88 bd a4 05 e5 bd ce 7e 67 3c
       0.29104656 -0.066867664 -0.111827165 0.014129354
000140 89 ac 3c bd 7f 62 ae 3d 44 77 91 bd 3a 12 b8 3d
       -0.04606298 0.085148804 -0.07102826 0.089878514
000150 fc 43 9f 3e 39 66 0d 3e f1 df fe 3d bd f3 96 3e
       0.31106555 0.13808526 0.12445057 0.29482833
000160 60 33 d5 bd a2 f9 6c be 5c d6 89 be 5f 0c b5 be
       -0.1041019 -0.23142102 -0.26921356 -0.35361
000170 f3 16 a6 3e 45 d9 4d be af 85 97 3e b1 18 43 3e
       0.32439384 -0.20102413 0.2959418 0.19052388
000180 9b c5 b4 3c bd b0 61 3b b9 22 2f be b3 6d e7 3c
       0.022066882 0.003443762 -0.1710309 0.02825055
000190 9c 01 8a bd 6a 92 74 bc b7 c1 4b be e4 4a 70 be
       -0.06738588 -0.014927486 -0.19898115 -0.23466069
0001a0 bf 68 40 3e 2a 6b 4e be 87 58 94 3e 3b 51 8e 3d
       0.18789957 -0.20158067 0.2897379 0.06949087
0001b0 c8 15 30 be be 85 a8 3e 1b c6 a9 3e ff 34 82 3e
       -0.17195809 0.32914537 0.33158955 0.25431058
0001c0 0e 2d d6 3d 74 ca c7 3e ad a4 70 be 97 62 88 be
       0.10457812 0.39021647 -0.23500319 -0.26637718
0001d0 cd 41 d7 3d cc cd ad 3e 9a b5 1d bd 63 f3 ba bd
       0.105105974 0.33946073 -0.038503267 -0.091284536
0001e0 70 1c 1e 3e 07 5c 19 3e df 08 bc 3e 30 98 c1 be
       0.15440536 0.14976512 0.36725518 -0.37811422
0001f0 5a 67 93 be 83 ff f0 bd c1 2c 86 3c 85 df 31 3e
       -0.28789788 -0.11767485 0.016378762 0.17370422

hidden1.weight f4 [64, 128]
000000 a7 31 18 3d eb 29 54 bd 6a 51 c2 bc a9 7a b4 3d
       0.037156727 -0.05179779 -0.023720462 0.08812458
000010 90 65 ec bd 2f 11 b2 3c fd 3c 42 be af a7 d3 bc
       -0.11542809 0.02173671 -0.18968578 -0.025836794
000020 16 73 e9 bd 2f 8e 46 ba 7f e9 04 3c f9 f4 0a 3e
       -0.11398904 -0.00075742876 0.00811231 0.13570012
000030 4b 3c b1 3d 7e 8f 4f 3e ea f1 0e be 5a d9 1e bc
       0.08654078 0.20269582 -0.1395947 -0.009695375
000040 39 ef e6 bd f0 9b ae bd 37 e1 2b 3e 29 d0 26 bd
       -0.11276097 -0.085258365 0.16785131 -0.04072586
000050 53 90 16 bb 2f 1d 83 bd 39 ab 82 3d b4 6a 79 be
       -0.0022974208 -0.06402051 0.063803144 -0.2435711
000060 1c fe 9e 3d 98 a7 2a 3d 9c aa 14 3e f4 c5 a7 bc
       0.07763311 0.041663736 0.14518207 -0.020480134
000070 52 75 6d bc 41 68 2f bd 72 29 fc 3d d5 75 9e 3d
       -0.014493303 -0.042824034 0.123125926 0.077373184
000080 ce cf c1 bd a2 23 10 3d ef e8 cf bd 2a b4 6b 3e
       -0.09463464 0.035190232 -0.101518504 0.23017946
000090 29 da 9a 3d cf 61 b7 bd 43 3a 3f 3d 2b cd 28 3c
       0.07561142 -0.089542024 0.046686422 0.010302822
0000a0 66 9e 51 bd bb 12 fa 3c e1 c6 80 bd 46 ac da 3c
       -0.05117645 0.03052651 -0.06287933 0.026693475
0000b0 22 85 9a 3d f1 e3 65 3d 62 64 98 3d f0 12 1b 3d
       0.07544924 0.056125585 0.074410215 0.037859857
0000c0 70 94 8e 3b d8 30 42 3d 6c 35 39 3e 1c ab 53 be
       0.004351191 0.047409862 0.18086785 -0.20670742
0000d0 37 d6 f4 bb 1e f4 c1 3d 53 e8 00 bc dc 0f be 3c
       -0.0074718255 0.0947039 -0.00786789 0.023200922
0000e0 12 07 0a 3e 60 20 4e 3d 62 6b 18 3d e1 03 c5 3c
       0.1347926 0.050323844 0.037211783 0.024049701
0000f0 bb 1d da 3e ee 62 aa 3c 8c 37 88 bc ca 14 93 3d
       0.42600808 0.020799126 -0.01662805 0.071816996
000100 81 36 5f 3d 70 46 e8 bc d0 cb 5b bb f2 9d 83 bc
       0.05449534 -0.0283539 -0.003353823 -0.016066525
000110 69 08 94 3d ca a7 9b bc c2 3f 10 bd e4 cf 59 bc
       0.072281666 -0.019000906 -0.035217054 -0.013294194
000120 72 5f da bc b8 6c 80 3c 67 f8 08 be 01 43 fc 3c
       -0.02665684 0.015676841 -0.13376008 0.030793669
000130 5f bf 9d bd 6d 8c 6b 3d 0c c7 c5 ba 98 ca 76 bd
       -0.07702517 0.057506967 -0.0015089228 -0.060251802
000140 b0 07 0b 3d d4 2b cd bd ef 43 a4 3d 00 93 d0 bc
       0.03394288 -0.10018125 0.0802077 -0.02546072
000150 76 f2 35 3d 15 e8 9a be 36 d4 cb 3c 4f a1 b6 bd
       0.044420682 -0.3025519 0.024881463 -0.08917486
000160 d9 0e 9f 3d 01 f1 c8 bb a9 aa 41 bd b5 d9 49 be
       0.07766504 -0.0061322455 -0.047281895 -0.19711955
000170 e4 5d 80 3d b9 91 88 bc ab d2 90 bd 91 9f b8 3c
       0.06267908 -0.016671048 -0.07071432 0.022537025
000180 c2 3e a1 bd 12 af 3d bd 61 39 82 bd b7 3f 94 3d
       -0.07873298 -0.04630954 -0.063586004 0.07238715
000190 c9 aa 62 ba b5 7a 0a be dc 3c 53 be ef 36 4e 3e
       -0.0008646665 -0.13523372 -0.20628685 0.20138143
0001a0 3a 6a 0d be bc 1c a8 bc d5 9a 10 3c 7a ac 8e 3a
       -0.13810053 -0.020521514 0.008825977 0.0010885142
0001b0 34 e7 af bc 94 42 8c bb 06 39 82 3d ce 3d dc 3c
       -0.02147255 -0.0042803977 0.063585326 0.02688494
0001c0 32 b4 2b 3c 2e 61 14 3c 00 f0 c0 3d 49 cd ce bd
       0.010479974 0.009056373 0.09420776 -0.10097749
0001d0 36 11 32 3c 34 d7 51 3d d2 68 f2 3d 79 2f b9 3d
       0.010868361 0.051230624 0.11836399 0.09042258
0001e0 b9 28 fe bc 99 b7 8c 3c b2 72 1c be cd 82 17 3e
       -0.031025277 0.01717739 -0.15278128 0.1479599
0001f0 d4 4c ce bd 09 11 0f 3e 7c f8 16 3d 27 b7 c0 3d
       -0.100732476 0.13971342 0.036858067 0.094099335
000200 c3 9b c5 3c 5a 19 7f bd a8 34 9b 3d 2a f3 f8 bd
       0.024122125 -0.062280037 0.07578403 -0.12155755
000210 38 92 14 3e 18 38 a8 3d af 9b d4 3d ff d2 1e 3d
       0.14508903 0.08213824 0.10381257 0.03877544
000220 01 f3 e0 3d 60 9b d0 bc b6 7d 1c 3e a0 1c e8 3c
       0.10983849 -0.025464714 0.1528233 0.028333962
000230 01 d6 d2 3d 35 73 5f 3e c8 0d 4b bd ec 81 2e 3d
       0.10294724 0.21821292 -0.04957369 0.042604372
000240 b1 47 0e bd 7f 4e af 3c 79 45 4c 3d cb 4f 39 3d
       -0.03473634 0.021399735 0.04987094 0.045242112
000250 48 08 b9 3b 98 5d 66 bd 82 45 d6 3d ac 7e b9 3d
       0.005646739 -0.0562416 0.10462476 0.09057364
000260 59 43 63 bd f4 73 1c 3e 21 4c ee 3d af 9f 81 3e
       -0.05548415 0.15278608 0.11635614 0.2531714
000270 30 c1 94 3d 8c 59 21 3d eb ee 2f 3e a5 de 94 bd
       0.0726341 0.03939204 0.17180984 -0.072690286
000280 ce aa 9a 3c 9e bf 7c bd ab ed 0c 3d e9 a5 50 3e
       0.018880274 -0.061706178 0.034406345 0.2037579
000290 1a 4a 6e be a2 46 27 3b d5 ae ca bc 1a 35 35 3d
       -0.23270455 0.0025524278 -0.02474157 0.044240095
0002a0 52 43 fb 3d 65 80 ac bd c0 08 a2 bd 62 b8 a1 3c
       0.122687 -0.08422927 -0.07911825 0.01974124
0002b0 18 05 1b be 3a ee 0f bd a5 9f 19 be 46 84 e8 bd
       -0.15138662 -0.0351393 -0.15002306 -0.11353354
0002c0 f7 94 0b be 87 8e 88 bd b9 96 62 be 1d fb a6 3d
       -0.13631044 -0.0666781 -0.22127809 0.08153365
0002d0 e9 0e 63 3c dc c6 ef 3b bb 5a d8 bd 61 4e 5c 3c
       0.013858535 0.007317407 -0.105641805 0.013446421
0002e0 b8 cb ba 3d 04 84 4c 3d c4 76 07 3c 88 4d 2a be
       0.091208875 0.049930587 0.008268062 -0.16631138
0002f0 95 78 50 be 3f d9 02 bd 51 78 8b 3c 98 08 aa 3c
       -0.20358498 -0.031945463 0.017025145 0.020756051
000300 79 0d d7 3d 13 5b 62 3c a8 5b 12 3e 06 09 1f 3e
       0.105006166 0.013815659 0.14292777 0.15530786
000310 2e 30 5e bd 8f 55 bf bd 91 e5 99 3c aa ee e6 bd
       -0.054245166 -0.09342491 0.018786224 -0.1127599
000320 02 7e d3 3d 59 04 7d bd 63 1a df 3d 74 c3 c5 bd
       0.103267685 -0.061771724 0.10893705 -0.0965642
000330 80 4c 49 bd 38 db d9 bb 60 ac 84 3d e6 db f9 3c
       -0.04914522 -0.0066484474 0.064781904 0.030500364
000340 07 8e 0b 3e d5 5a e7 bd a7 f2 4b bb 2f a9 e3 3b
       0.13628398 -0.11296622 -0.0031119974 0.0069476585
000350 3f 9c 04 be 43 4e e0 bb cf b8 70 3d b6 f5 09 be
       -0.12950228 -0.006845267 0.058769997 -0.13472638
000360 b2 ab aa 3d 79 25 c7 bd 27 93 1a bd f4 3f 4d 3e
       0.083335295 -0.09723944 -0.03773799 0.20043927
000370 85 52 c7 bd 0a f2 36 bd e8 e1 a1 3d 66 f8 8e 3d
       -0.09732536 -0.04466442 0.07904416 0.06980972
000380 80 08 76 bb 48 30 84 3d 9c c8 0a 3e 19 7f fd 3d
       -0.0037541687 0.064545214 0.13553089 0.123777576
000390 21 5b b2 3d 37 63 7d bb bb 30 87 bd 51 dd 09 bd
       0.08708788 -0.0038663873 -0.066010915 -0.03365833
0003a0 7f 19 1f 3e 71 c8 37 3d f1 da 14 bd 63 01 33 3c
       0.1553707 0.04486889 -0.03634161 0.010925624
0003b0 91 be 57 bd 3f 41 7d 3d 3b a6 1a bd 3c 1a 52 3d
       -0.052671973 0.0618298 -0.037756186 0.05129455
0003c0 70 27 a6 3c 6d 57 11 bd b7 fe 43 bb 71 5f 8a 3d
       0.020282477 -0.035483766 -0.002990646 0.06756485
0003d0 76 e2 0b be ae f9 84 bc d2 26 c7 bd 9f 92 a7 bd
       -0.13660607 -0.016232338 -0.09724201 -0.08182263
0003e0 08 70 82 bc c5 3d 6a 3d f5 ae a3 bd ba cf 98 3d
       -0.015922561 0.057187814 -0.07992355 0.07461496
0003f0 5f 5b fb 3c 61 ba 86 bd 2c b2 56 be d3 c7 f7 bd
       0.030683218 -0.06578518 -0.20966405 -0.1209866

hidden1.bias f4 [64]
000000 6a b8 9b bd 02 d6 a4 39 7f 24 0d 3d 36 1a 0b 3d
       -0.076035336 0.00031439966 0.034458634 0.033960544
000010 db 62 99 3d 89 b6 7a 3d c9 26 39 bd 7c 37 ca bc
       0.07489558 0.061209235 -0.045203004 -0.02468466
000020 42 db b8 3c 2a 88 33 bd 6c f8 7b 3b 5a 40 fd bb
       0.022565488 -0.043831028 0.0038447632 -0.0077286186
000030 d7 34 b5 bd 32 56 7c bd 89 4a 48 bd f6 62 17 3d
       -0.08847969 -0.06160564 -0.048899207 0.03695961
000040 b5 09 d9 3d 7b 7b a8 3d dd 41 3a 3c 73 12 15 bd
       0.105975546 0.08226677 0.011368242 -0.036394548
000050 85 ee a4 bc 90 25 03 be 1e 62 a1 bd ee 35 e4 3d
       -0.020133266 -0.12807298 -0.078800425 0.11143099
000060 fc 33 1c 3c 11 47 78 3d fa 1d 6c bd d4 d5 98 3b
       0.009533878 0.06061465 -0.057645775 0.004664162
000070 b7 04 67 3d 00 24 36 3e c5 1f 92 bc fa 30 cd 3d
       0.05640098 0.1778717 -0.017837415 0.10019107
000080 4b 7e a4 bd 87 4c 97 3c 56 83 4d 3d 0a bd ff bd
       -0.08031901 0.018469108 0.05017408 -0.12487228
000090 6a e9 d0 bd df 6c b6 3d 2c 33 13 3e 02 c2 99 3d
       -0.1020077 0.08907484 0.1437499 0.07507707
0000a0 0a ae 54 bc f1 54 c6 bc 3b 75 00 3e c6 d5 81 bd
       -0.012980947 -0.024210425 0.1254472 -0.06339602
0000b0 59 81 ed 3c a9 dd 92 3c 85 2c d6 3c 42 22 8f 3d
       0.028992342 0.017927961 0.026144275 0.06988956
0000c0 9a 61 c6 bc 47 99 b1 bd 41 b5 3e bd b7 c8 27 3d
       -0.024216462 -0.086718135 -0.046559576 0.0409629
0000d0 03 f6 b0 bd 58 f1 1a 3b d4 a7 b3 bd 2e be 07 3d
       -0.08640673 0.0023642387 -0.08772245 0.033140354
0000e0 65 f3 d8 bd d8 f6 9b bd b7 9c b6 bd d7 b3 cc bc
       -0.10593299 -0.07615441 -0.0891661 -0.024988098
0000f0 23 83 df bd 6d 61 47 bd 27 3e 1f 3d 90 2c 4a bd
       -0.10913684 -0.048676897 0.038877632 -0.049358904

hidden2.weight f4 [32, 64]
000000 03 40 d3 be ef 3c 40 be 34 1e c5 3d 1f cf 35 3e
       -0.41259775 -0.18773244 0.096249014 0.17754792
000010 e7 d6 12 3d b8 84 61 bd d2 e5 4f bd a8 e4 49 3d
       0.035849478 -0.05505821 -0.050756283 0.04929033
000020 4b 20 20 be 4c 8c 34 bd 8f 5e 00 3e d0 6c 6d be
       -0.15637319 -0.04407911 0.12536071 -0.2318604
000030 23 ab 3b 3d 3a bb d9 bb 13 d2 25 be 18 eb 24 3c
       0.045817506 -0.0066446336 -0.16193418 0.010065816
000040 2a aa e6 3d a3 22 84 be 35 ec 8e bd e3 20 aa 3d
       0.11262925 -0.25807676 -0.06978647 0.08307054
000050 68 3a 75 3e b8 da 93 3e 05 db a0 3e 18 b0 95 3e
       0.23948061 0.28877807 0.314171 0.2923591
000060 8f 08 62 3d 94 c8 1a 3e 5c 8e 80 3e 9a 80 ba bd
       0.055183943 0.15115577 0.25108612 -0.0910656
000070 df 7b 27 3e 49 35 9e 3d 0c f5 3a 3b 3d db 44 3d
       0.16355847 0.07725007 0.0028527407 0.048060644
000080 76 5f 7a be e2 a5 3b be e4 1d 9b bc e2 8d b7 3e
       -0.24450478 -0.18324998 -0.018935151 0.35850435
000090 69 22 65 bd e8 d5 27 3c 14 08 13 bd 57 77 74 bd
       -0.05594102 0.01024387 -0.035896376 -0.059684124
0000a0 76 ac 1d 3e 08 ba 11 3e 06 ce af bc 46 2a 0e be
       0.1539782 0.14231122 -0.021460544 -0.13883314
0000b0 c7 bb e7 bc 4a de 9e bc ee 1f 57 3e 36 b9 32 3e
       -0.028287781 -0.019393105 0.21008274 0.17453465
0000c0 a5 49 b0 3c 48 db 27 3e 66 9d 6b 3e 2c fc 4b 3e
       0.021519491 0.16392243 0.23009261 0.19920415
0000d0 74 5a 30 3e f8 18 4b 3d 75 56 e6 be 58 34 ce bd
       0.17222005 0.04958436 -0.44987836 -0.100685775
0000e0 2a d3 5f 3d 29 92 66 3e 85 5a 43 3d f3 29 a2 3e
       0.05464474 0.22516693 0.047693748 0.3167263
0000f0 49 31 8c 3e 02 b4 ec bd f4 11 08 3e e9 2a 42 be
       0.27381352 -0.11557771 0.13288099 -0.18961681
000100 36 cc 72 be 0b 22 78 be cd 53 c5 3d 3c b8 07 3e
       -0.23710713 -0.24231736 0.09635124 0.13253874
000110 a3 02 7b 3d c8 c1 73 be ec 38 b0 3d 0a 93 bf bd
       0.06128181 -0.2380439 0.08604607 -0.09354217
000120 7e c7 54 bd 96 35 ed 3d 06 ef 28 3e dd 4a 7f bd
       -0.051948063 0.11582486 0.1649743 -0.062327255
000130 93 c3 b7 3d 4b 45 a2 bc 1b 91 0a bd 6c 16 ac 3b
       0.0897285 -0.019808432 -0.03382979 0.0052516963
000140 f4 1b 99 bd 99 a9 48 be ee 66 19 be 0a ce 03 be
       -0.07476035 -0.19595946 -0.14980671 -0.12871566
000150 2e 55 06 3e 7f 79 60 3e 3a 64 90 3e 6b f3 48 3e
       0.13118431 0.21921347 0.28201467 0.19624107
000160 92 79 9e 3e bd bd 63 3e 35 23 b8 3e a3 2b b9 bd
       0.30952126 0.22240348 0.3596436 -0.09041526
000170 2a 20 83 3d a5 61 47 3d b1 95 b6 bd e4 70 59 3d
       0.06402619 0.048677105 -0.0891527 0.053086177
000180 5d 3e a0 be 7c 19 39 be 0a 1a 91 bd 1f 1c f8 3e
       -0.3129758 -0.18076128 -0.07085045 0.48458955
000190 0f 86 35 be 1a f7 a5 3d 30 9e 85 3d 54 d5 0b be
       -0.1772692 0.081037715 0.065243125 -0.13655597
0001a0 4c ba 6e 3e 4c c2 77 3c b1 df 0f 3b db 52 f9 bd
       0.23313254 0.015122008 0.0021953399 -0.121740066
0001b0 28 b7 f6 bc 2a 30 89 3d 3b 0c 6f 3e 31 92 8b 3e
       -0.030116633 0.0669864 0.2334451 0.27259973
0001c0 70 17 e3 bd 74 a9 23 3e 6b c2 8b 3c ac 7d 3d 3e
       -0.11088455 0.1598261 0.01706048 0.18504971
0001d0 e2 52 84 3e d4 fb 9a bd 37 2e 9a be d3 44 07 be
       0.25844485 -0.07567564 -0.30113384 -0.13209848
0001e0 b4 f5 3d 3e bb df bf 3e db fc 0b 3e 63 c2 35 3e
       0.1855076 0.3747538 0.13670675 0.17749934
0001f0 14 26 e7 3e 90 02 0f be a7 22 d6 3d e4 8d bc be
       0.4514624 -0.13965821 0.10455828 -0.36827004
000200 a5 78 93 be 5e c3 9e be 10 88 50 bd 2b 31 29 3e
       -0.28802982 -0.31008428 -0.05091101 0.16522662
000210 d9 40 a4 3d 0a 28 81 bd 7a 99 00 3e 8b 99 ed 3d
       0.08020181 -0.06306465 0.12558547 0.116015516
000220 ec 92 78 be 22 b9 24 3d e8 44 54 3e 86 f7 af bc
       -0.24274796 0.04021562 0.2072941 -0.021480333
000230 69 7f b0 3c ab ab fd 3a 44 50 05 bd 8c 16 30 3e
       0.021545129 0.0019353529 -0.03254725 0.17196101
000240 1e 44 28 ba b3 91 6c be 84 12 11 be 1a 3c 66 3d
       -0.00064188417 -0.23102455 -0.1416722 0.05620966
000250 ca 13 e0 3d dd a7 c3 3e b9 7a 62 3e 54 fb 80 3e
       0.109412745 0.38214007 0.22117127 0.25191748
000260 cc c9 0a 3e b5 ef e4 3e 86 4b b5 3e c3 a5 eb bc
       0.13553542 0.44714132 0.35409182 -0.028765565
000270 2c 9b 79 3d e2 ef 9b bd 47 df 66 be 46 35 10 3d
       0.060939 -0.076141134 -0.22546111 0.035207056
000280 32 19 a0 be 46 15 fb 3c 2a b4 86 bd 37 a8 0d 3f
       -0.31269222 0.030649792 -0.06577332 0.553348
000290 df ff 98 be a7 cc 12 be cb 98 b5 bd 12 0a 93 bd
       -0.29882714 -0.14335881 -0.088670336 -0.07179655
0002a0 04 7e 12 3e eb 1b f6 3d e9 27 6f bd f6 3f b8 3b
       0.14305884 0.12017044 -0.05838767 0.005622859
0002b0 0d a4 79 bd 2a b8 24 3e 41 27 5c 3d 80 4d 64 3e
       -0.060947467 0.16085878 0.053748373 0.22295189
0002c0 e8 13 9f bc 64 d6 d9 3e 53 a5 12 3e ff 89 7b 3e
       -0.019418672 0.4254638 0.14320879 0.2456436
0002d0 fc 50 99 3e 9f c1 3c 3d 0f c6 30 be f4 c7 57 bb
       0.299446 0.04608309 -0.17263053 -0.0032925578
0002e0 ed 94 89 3e 24 8d 29 3f 20 62 5c 3e 30 04 ca 3e
       0.26871434 0.6623099 0.21521807 0.3945632
0002f0 e0 e8 ab 3e 9c bc 14 be 40 c7 1b bd 7b d7 9f be
       0.33576107 -0.14525074 -0.038031816 -0.31219086
000300 e2 ae a0 be 6e 13 31 be 9d 3c 02 bd c1 97 95 3c
       -0.31383425 -0.17292568 -0.031796087 0.018260838
000310 1c f5 96 bc 4c f6 b4 bc 65 77 34 3d 2a 42 32 bc
       -0.018427424 -0.0220901 0.044059176 -0.010880033
000320 88 bf 0b be 3a 2b 07 3e df 4f 71 3e 4f 21 09 be
       -0.13647282 0.13200083 0.23565625 -0.13391612
000330 df 35 f1 3d 08 ce 8a bc 87 3e 07 be ac c7 88 3d
       0.11777853 -0.016943946 -0.13207446 0.066787094
000340 2c 3b 71 bd 37 ea 2f be 8a 3c da bd 91 db 19 be
       -0.05889432 -0.1717919 -0.10656078 -0.15025164
000350 6e 9f 48 3e 80 aa b7 3e 67 47 86 3e 5f ce 06 3d
       0.19592068 0.3587227 0.2622635 0.032911655
000360 6a 82 29 3e 9b 71 8e 3e 87 13 ad 3e 44 36 51 be
       0.16553655 0.2782105 0.3380396 -0.20430857
000370 2e 7f 3e bd bf d0 a2 bd 8f ac 2e bc f6 89 65 3c
       -0.046508007 -0.079499714 -0.010661258 0.014009943
000380 0f 4f 1e be c1 c0 1a be 70 b9 70 bd 5d 98 0f 3f
       -0.15459846 -0.15112592 -0.058770597 0.5609186
000390 5f 6e 6f be 54 7b b5 3c 00 4d fd 3c 20 4a 0f 3c
       -0.23381947 0.022153534 0.030920506 0.0087457
0003a0 b5 4c 73 3e 4d 85 c9 bc a0 4c 3b 3d ab fe 69 3d
       0.2375973 -0.024599696 0.045727372 0.057127636
0003b0 99 2f 03 bd cc f5 df bd f6 87 f4 3d 72 c5 f3 3d
       -0.032027815 -0.10935554 0.11939995 0.11902894
0003c0 42 83 07 bd 7f 20 17 3e 71 54 af 3c 99 33 31 3e
       -0.03308416 0.1475849 0.02140257 0.17304839
0003d0 96 87 4a 3e 94 1b 59 3d 4c bf 9b be 9a 29 da bd
       0.19778284 0.053004816 -0.30419385 -0.10652466
0003e0 7e 35 25 3e b6 be be 3e fd e7 b6 3d ad a9 4e 3e
       0.16133687 0.37254876 0.08930967 0.20181914
0003f0 3c 46 74 3e d4 2a 66 bd 45 26 cc 3d c9 48 38 be
       0.23854917 -0.056193188 0.09968237 -0.17996515

hidden2.bias f4 [32]
000000 43 d6 cb 3d 2c 81 9c 3c c2 93 02 be 84 cd 18 3e
       0.099529766 0.019104563 -0.12751678 0.14922148
000010 b1 41 b0 3d dc 36 16 3e d8 2d af 3d 47 62 29 bd
       0.0860628 0.14669365 0.08553666 -0.04135349
000020 3b d5 e9 3d 31 1e dd 3c f7 24 55 3d 3b c7 70 bd
       0.114176236 0.026991935 0.052037206 -0.05878375
000030 ba f3 22 3d bd c7 8b bd 62 ba b8 3d 72 df 6d 3d
       0.039783217 -0.068252064 0.09019925 0.058074422
000040 11 51 1a 3e 64 6d 4c bd 2a 14 c1 bd 66 62 cf bd
       0.15069987 -0.04990901 -0.09427674 -0.1012619
000050 c8 a3 ee 3d 8c c4 c7 bd df 50 d9 3d 96 07 65 3c
       0.116523325 -0.09754285 0.10611128 0.013978859
000060 ff 74 c5 bd 32 19 58 bd 42 1a 59 bc 0d e6 a5 3d
       -0.09641456 -0.052758403 -0.013250889 0.08100519
000070 3f f6 9e 3d d3 5d 63 3d b1 20 42 3c 07 db a0 bd
       0.077618115 0.0555094 0.011848615 -0.07854276

output.weight f4 [1, 32]
000000 b8 a3 a3 3e 3c 98 18 3f 5f 63 8f 3f 7f ea 19 3f
       0.31960845 0.5960729 1.1202201 0.6012344
000010 ca 8d a2 be 3f 0e 10 3f e1 14 a2 be 19 f6 e1 be
       -0.317488 0.5627174 -0.31656554 -0.4413307
000020 36 d4 42 3f b8 7f fa be 93 cc dd 3e 51 29 f6 3e
       0.7610506 -0.48925567 0.4332014 0.48078397
000030 ad 14 1b 3f 6e a9 16 3f d7 25 e7 be 46 ec 0a 3f
       0.60578424 0.5885228 -0.45146057 0.54266775
000040 41 35 04 3f f3 e7 06 3e 67 32 0d be e8 ca d9 be
       0.5164376 0.13174419 -0.13788758 -0.42537618
000050 33 28 a4 be 5e f9 86 bd 55 da fa be c0 b0 9b be
       -0.3206192 -0.06590532 -0.489947 -0.30408287
000060 9c 35 07 bf b3 4d dd be 01 23 e3 3e e7 2f 08 3f
       -0.52816176 -0.43223342 0.44362643 0.53198093
000070 6f 74 04 bf a1 a0 77 be 8f 26 18 3f 7a a3 d3 be
       -0.51740164 -0.24182369 0.59433836 -0.4133566
